Models/best_rnn_model.pth (torch, 264326 bytes, 10 tensors)

rnn.weight_ih_l0 f4 [128, 62]
-0.64318323 -0.62441957 0.3021374 0.5487594 -0.2535397 0.62237257 0.028790256 0.6435688
0.99886674 0.47675347 0.8257439 0.5693954 0.09980778 -1.5884911 0.38656896 0.4317108
-0.4659906 -2.1628463 0.27525246 0.16593541 1.5747726 1.5031934 0.278633 0.3627772
-1.3924744 -1.270965 -0.110876724 -0.2081727 1.0188386 0.69395477 -0.27120313 -1.0612894
1.6870464 -0.10036411 0.0050284145 -0.6594358 0.9342021 0.052242585 -0.8346262 0.7485743
1.3809958 -1.0637715 -1.281563 0.35983694 -0.008858157 1.5829552 0.73652524 2.148584
1.4060616 0.23278654 -0.54722285 0.43153358 -1.8977927 0.16202262 -0.73126346 -0.61097157
-0.6490431 1.5055217 0.8115402 -0.38328716 0.013640216 0.27697924 1.2526629 1.236003
0.7212919 -1.0139719 -1.2790548 1.090322 1.3106618 0.14469792 0.75493336 0.41451392
0.2591615 0.58235496 -1.3844379 2.0973058 0.9134471 -3.137184 -1.2168553 -0.6372983
-2.6696799 -1.7785267 0.34514046 1.9260857 -0.8952202 -0.2528153 -1.2846215 -0.43463397
-0.11482449 -0.69489795 -2.165557 -1.5792322 -0.273187 0.069777496 3.982653 1.6121594
-0.48922467 1.1999979 0.1139521 -1.04632 -0.5012607 1.4139775 0.012566843 -0.53802055
-0.8072177 -0.19098915 -0.6138078 -1.0519841 2.713054 0.6537491 1.6924465 0.4229231
0.21706057 0.47477487 -1.4640315 -0.69755167 -0.6209816 0.3227063 0.3287015 -0.2406542
1.4766674 -0.46006945 0.6870616 -1.5091197 -1.1894473 -0.5066406 1.4863727 -0.9886743
0.091008514 -0.124492116 0.75959826 1.0417268 -0.1603788 -0.048731547 0.48079827 3.0221636
-0.8198482 -0.25137907 -0.946018 0.092497416 3.9712956 2.7756398 0.4872387 0.38198265
-1.8372471 -0.102760784 1.7796681 0.63685435 -0.73570555 -0.14412613 1.6109242 -1.0589983
0.93371326 0.040643994 -0.75214297 0.88282037 1.0476761 -0.6062797 2.0078685 0.7003265
-0.93936664 0.48049507 -0.26744843 -1.4264953 0.19428994 0.45059735 0.5518478 -0.11071845
0.06660436 -0.19194856 1.8518155 0.04781638 0.08096888 -1.1099626 1.0103413 0.062476806
-0.10592194 0.30255368 -0.19411643 -0.55870914 0.16746657 -1.2948586 -0.24440007 -1.1398734
0.49510035 0.56585246 0.6418205 0.3766297 0.14282396 0.4298558 1.6955622 1.117229
-0.45462534 0.38104632 -0.054373153 0.2295163 -0.27349266 0.2774045 0.11939466 2.3036911
-0.5846087 -1.784979 0.20814408 0.28587073 -0.708023 -1.6361995 0.088491514 -0.18223718
1.1285871 -1.7275124 0.14453886 -2.106356 1.3281668 -0.83859223 -0.250598 -0.5269372
0.2972433 0.35149816 -0.59458274 -1.0114622 -0.64575404 -0.05604379 0.4326296 -0.67156416
0.675336 0.0074422695 -0.17446323 0.029832691 -0.7890557 -0.45571798 1.1425965 0.4950815
-0.19299899 -0.18478794 -1.0708961 -0.7403254 0.37316316 1.412518 -0.8095782 -0.73967123
0.14073047 1.4825737 -0.33837798 1.5346259 -1.4780515 -1.7232035 0.1363704 0.9624019
0.46957114 -0.1297495 -0.2406083 -0.85516834 -0.34022954 -0.26247093 -0.06669228 0.5084136
00000000: a8a7 24bf f6d9 1fbf c1b1 9a3e 7f7b 0c3f
00000010: f5cf 81be cf53 1f3f 8bd9 eb3c edc0 243f
00000020: bbb5 7f3f 0819 f43e f463 533f e6c3 113f
00000030: 0568 cc3d ad53 cbbf 5eec c53e 3309 dd3e
00000040: 5296 eebe 136c 0ac0 e4ed 8c3e f9ea 293e
00000050: 2692 c93f a468 c03f fca8 8e3e efbd b93e
00000060: 9a3c b2bf fbae a2bf 5613 e3bd 392b 55be
00000070: 4e69 823f 05a7 313f 23db 8abe 55d8 87bf
00000080: 23f1 d73f b38b cdbd 66c5 a43b c9d0 28bf
00000090: de27 6f3f 52fc 553d 10aa 55bf 91a2 3f3f
000000a0: 78c4 b03f aa29 88bf 420a a4bf 8c3c b83e
000000b0: ce21 11bc 479e ca3f eb8c 3c3f 6682 0940
000000c0: d4f9 b33f 985f 6e3e cc16 0cbf f8f1 dc3e
000000d0: dfea f2bf 42e9 253e 1534 3bbf a268 1cbf
000000e0: b027 26bf efb4 c03f 19c1 4f3f 373e c4be
000000f0: 367b 5f3c 39d0 8d3e 4257 a03f 5935 9e3f
00000100: 96a6 383f d5c9 81bf 11b8 a3bf ac8f 8b3f
00000110: c4c3 a73f b12b 143e 5043 413f 2b3b d43e
00000120: d1b0 843e 3715 153f 4335 b1bf 423a 0640
00000130: abd7 693f 9fc7 48c0 eac1 9bbf fb25 23bf
00000140: 09dc 2ac0 c3a6 e3bf 40b6 b03e fa89 f63f
00000150: 272d 65bf 0271 81be 7a6e a4bf 5888 debe
00000160: 1a29 ebbd d5e4 31bf 7c98 0ac0 4824 cabf
00000170: 2bdf 8bbe 81e7 8e3d c9e3 7e40 3d5b ce3f
00000180: a87b fabe 8899 993f b85f e93d d0ed 85bf
00000190: 9f52 00bf 37fd b43f 29e5 4d3c b7bb 09bf
000001a0: d2a5 4ebf a992 43be 8222 1dbf 6aa7 86bf
000001b0: ada2 2d40 1a5c 273f 16a2 d83f 6089 d83e
000001c0: 2045 5e3e b115 f33e 6265 bbbf bf92 32bf
000001d0: a6f8 1ebf c339 a53e 904b a83e 0e6e 76be
000001e0: 7003 bd3f 398e ebbe 45e3 2f3f d62a c1bf
000001f0: cf3f 98bf 33b3 01bf 7641 be3f c219 7dbf
00000200: ac62 ba3d b9f5 febd 0875 423f 4e57 853f
00000210: 573a 24be bb9a 47bd 312b f63e 216b 4140
00000220: 92e1 51bf c2b4 80be 3c2e 72bf 496f bd3d
00000230: b529 7e40 15a4 3140 5a77 f93e 3b93 c33e
00000240: ea2a ebbf 3f74 d2bd 2acc e33f e308 233f
00000250: 3357 3cbf cd95 13be c432 ce3f 428d 87bf
00000260: d507 6f3f 517a 263d 718c 40bf 8400 623f
00000270: 401a 863f 2535 1bbf eb80 0040 9948 333f
00000280: 557a 70bf 7303 f63e 00ef 88be 6697 b6bf
00000290: f1f3 463e b2b4 e63e e645 0d3f 5bc0 e2bd
000002a0: de67 883d 2a8e 44be 4a08 ed3f 1cdb 433d
000002b0: 03d3 a53d 4113 8ebf dd52 813f aee7 7f3d
000002c0: 9aed d8bd 51e8 9a3e 75c6 46be 9007 0fbf
000002d0: 5b7c 2b3e edbd a5bf 0344 7abe 5fe7 91bf
000002e0: cb7d fd3e b5db 103f 594e 243f 9cd5 c03e
000002f0: 7240 123e 0f16 dc3e 2f08 d93f 5c01 8f3f
00000300: a7c4 e8be 8118 c33e 62b6 5ebd 5206 6b3e
00000310: 3b07 8cbe f607 8e3e 3085 f43d ad6f 1340
00000320: eaa8 15bf 317a e4bf b923 553e a65d 923e
00000330: ff40 35bf fc6e d1bf 0a3b b53d 629c 3abe
00000340: 8b75 903f 201f ddbf ff01 143e 89ce 06c0
00000350: 5f01 aa3f fbad 56bf 624e 80be 5be5 06bf
00000360: 4630 983e 91f7 b33e 9336 18bf 9877 81bf
00000370: 2350 25bf 2c8e 65bd a081 dd3e a1eb 2bbf
00000380: d2e2 2c3f 48de f33b 7da6 32be b063 f43c
00000390: 8eff 49bf de53 e9be 9a40 923f 537b fd3e
000003a0: 87a1 45be 0d39 3dbe 2013 89bf f785 3dbf
000003b0: 3e0f bf3e 64cd b43f 8440 4fbf 185b 3dbf
000003c0: a61b 103e fac4 bd3f e13f adbe 9f6e c43f
000003d0: cb30 bdbf ef91 dcbf afa4 0b3e f95f 763f
000003e0: a16b f03e 0edd 04be 0662 76be 50ec 5abf
000003f0: 9132 aebe 9762 86be f695 88bd 6527 023f

rnn.weight_hh_l0 f4 [128, 128]
-0.021618767 -0.1611024 0.16009724 0.0978572 -0.051798124 0.08513815 -0.10426245 -0.09990301
-0.107390724 -0.155141 0.16040349 0.25623518 -0.11204637 -0.15339668 0.09190549 0.047724836
0.09405807 -0.02052347 0.027721658 0.028811764 0.09387196 0.109790415 0.2438546 -0.04450703
0.15397714 0.07167064 0.025948709 -0.06340388 -0.13490304 -0.111389756 -0.040023312 -0.17905886
-0.14025635 0.06347072 0.09032287 -0.20162983 -0.030453285 -0.013841688 0.03768283 0.068225615
0.045106873 -0.03380921 -0.04039341 -0.12085505 0.006695963 0.10197503 0.0684457 0.03749187
0.25078827 0.07656664 0.09909277 0.024499847 -0.029437205 -0.12599944 0.1273854 0.05600721
-0.048283078 -0.078882374 -0.05641655 0.05136387 -0.018243331 -0.08481567 -0.01819423 -0.008065506
-0.031880487 -0.053835064 -0.0018174648 0.026581362 -0.057803947 0.18741061 -0.05809839 0.038422387
-0.0075077727 0.110662356 -0.013203886 0.07983946 -0.021359807 0.012674848 -0.26184717 0.06430033
0.036995966 -0.23515111 0.15649872 -0.004497533 -0.08138709 0.0009097703 -0.13215066 -0.09191605
0.0013029252 0.051778898 0.043392535 0.030713068 0.08219397 0.1600464 0.17653172 -0.050927453
0.1759095 0.009610717 0.12543818 0.01771684 -0.11436194 0.034592483 0.12740028 0.059566014
0.064437546 -0.0660157 -0.30948222 0.03903081 -0.19968294 -0.053330097 0.0069870073 -0.18028574
-0.29349062 -0.1510152 0.16674282 -0.14039384 0.052637618 -0.10438304 0.14853258 -0.049828023
-0.027563319 -0.050764255 -0.101589955 0.041439563 -0.18315667 0.08020654 0.03595251 -0.10530876
0.027354974 -0.055571783 -0.11122589 -0.014309525 0.16760173 -0.045544412 0.09514693 0.20930685
-0.16409174 0.15924472 0.021238972 -0.065826066 0.057930492 -0.025865586 0.121195674 -0.0009803842
0.09435672 -0.06399281 0.1613511 0.09613857 0.17574108 -0.023124186 0.1849189 -0.014802603
-0.098544054 -0.16204184 -0.21981104 0.10148646 0.029380383 -0.34990656 -0.063063875 0.028394394
0.33575547 -0.13194415 -0.18715106 -0.046104472 0.09600298 0.079200484 0.21285576 -0.040711302
0.16831163 0.012637693 0.080751136 0.18997923 0.03293904 -0.036999155 -0.0453828 0.19022956
-0.026546694 -0.058578733 -0.12062122 0.03332469 -0.15597145 -0.043451935 -0.0028579896 0.011633197
0.11422236 0.11654435 -0.10212288 -0.1144018 0.06378434 -0.07605962 0.11106346 0.20547718
-0.0881723 0.045026544 -0.009443795 0.091456376 0.22018327 -0.08331255 -0.028771015 0.011734557
0.046202566 0.010232012 0.018003974 0.0031569807 -0.071067445 -0.020724135 0.10353942 -0.24928883
-0.21958317 -0.037277564 -0.024435986 -0.21771944 -0.03348755 -0.26215518 -0.3051995 0.09803521
0.118033476 -0.05799141 -0.034292623 -0.28842834 0.0096663665 0.06729399 0.23067144 0.12644204
-0.08136047 0.06815898 0.055523753 -0.11802466 -0.060718782 0.055878587 0.087256186 0.092955545
-0.10127904 -0.04875913 0.11364508 0.12320477 -0.11211777 -0.18723941 0.041614737 -0.19176404
0.09646725 -0.23074357 0.18530992 0.114255376 0.04103731 0.108370796 0.08061073 -0.035222422
0.026644798 -0.0071935565 0.12447467 0.03559094 0.18517523 0.015809376 -0.21257472 -0.10432438
00000000: d719 b1bc 07f8 24be 88f0 233e 5b69 c83d
00000010: 452a 54bd e95c ae3d 8d87 d5bd f399 ccbd
00000020: abef dbbd 48dd 1ebe d040 243e 4231 833e
00000030: 9178 e5bd 0514 1dbe f238 bc3d 1e7b 433d
00000040: 84a1 c03d d620 a8bc 8818 e33c a606 ec3c
00000050: f13f c03d ccd9 e03d 05b5 793e 014d 36bd
00000060: 2fac 1d3e 0ec8 923d 6392 d43c e5d9 81bd
00000070: 0624 0abe 5020 e4bd 7cef 23bd 355b 37be
00000080: 5c9f 0fbe f0fc 813d 32fb b83d 0d78 4ebe
00000090: 2b79 f9bc 3fc8 62bc 5059 1a3d dfb9 8b3d
000000a0: fcc1 383d 877b 0abd 8f73 25bd da82 f7bd
000000b0: cf69 db3b 49d8 d03d 422d 8c3d 1391 193d
000000c0: 5267 803e f8ce 9c3d 26f1 ca3d e7b3 c83c
000000d0: 4b26 f1bc ff05 01be 5171 023e d167 653d
000000e0: 7ac4 45bd 158d a1bd 0a15 67bd ec62 523d
000000f0: 0a73 95bc d7b3 adbd 110c 95bc 2f25 04bc
00000100: 1d95 02bd 2882 5cbd 0038 eeba 28c1 d93c
00000110: d5c3 6cbd 91e8 3f3e 94f8 6dbd cb60 1d3d
00000120: c303 f6bb f2a2 e23d 1d55 58bc df82 a33d
00000130: c3fa aebc 2aaa 4f3c d510 86be e4af 833d
00000140: 1589 173d 74cb 70be 3341 203e 0b60 93bb
00000150: 46ae a6bd a77d 6e3a 8152 07be 7b3e bcbd
00000160: eac6 aa3a 1c16 543d 5fbc 313d f999 fb3c
00000170: 5055 a83d 34e3 233e bbc4 343e 4e99 50bd
00000180: 9f21 343e 4576 1d3c de72 003e e822 913c
00000190: 9836 eabd d9b0 0d3d 3875 023e 7efb 733d
000001a0: d5f7 833d 3d33 87bd 7474 9ebe c5de 1f3d
000001b0: af79 4cbe a970 5abd 44f3 e43b d39c 38be
000001c0: 6744 96be bba3 1abe a1be 2a3e 67c3 0fbe
000001d0: 8b9a 573d c6c6 d5bd ed18 183e 7818 4cbd
000001e0: 78cc e1bc 2eee 4fbd 650e d0bd 88bc 293d
000001f0: 6c8d 3bbe 5443 a43d f042 133d 1fac d7bd
00000200: 8a17 e03c 3d9f 63bd 66ca e3bd 7f72 6abc
00000210: ca9f 2b3e c78c 3abd 65dc c23d 8954 563e
00000220: aa07 28be 0c11 233e 5afd ad3c d1cf 86bd
00000230: 8648 6d3d 11e4 d3bc 7035 f83d 3c80 80ba
00000240: 193e c13d aa0e 83bd 3939 253e 4ce4 c43d
00000250: 78f5 333e ef6e bdbc 615b 3d3e 9e86 72bc
00000260: 77d1 c9bd 4cee 25be 2516 61be 22d8 cf3d
00000270: 21af f03c f426 b3be a227 81bd 5c9b e83c
00000280: 24e8 ab3e 5e1c 07be 87a4 3fbe 0bd8 3cbd
00000290: 369d c43d dd33 a23d dcf6 593e e5c0 26bd
000002a0: e259 2c3e 540e 4f3c da60 a53d ea89 423e
000002b0: 16eb 063d 6d8c 17bd 51e3 39bd 8acb 423e
000002c0: 7478 d9bc 41f0 6fbd 4208 f7bd 787f 083d
000002d0: fbb6 1fbe a8fa 31bd 1c4d 3bbb 2a99 3e3c
000002e0: 6aed e93d ceae ee3d cd25 d1bd 7e4b eabd
000002f0: 5da1 823d 25c5 9bbd 3d75 e33d 9c68 523e
00000300: ae93 b4bd c16d 383d 26ba 1abc 7b4d bb3d
00000310: b977 613e c59f aabd 31b1 ebbc 4d42 403c
00000320: e73e 3d3d 2ba4 273c 127d 933c 59e5 4e3b
00000330: cf8b 91bd a9c5 a9bc 7a0c d43d 9245 7fbe
00000340: 69da 60be 5cb0 18bd fa2d c8bc d8f1 5ebe
00000350: 3e2a 09bd 3439 86be 1c43 9cbe afc6 c83d
00000360: 89bb f13d 6788 6dbd 6c76 0cbd e1ac 93be
00000370: ae5f 1e3c 6ed1 893d 2235 6c3e 067a 013e
00000380: 51a0 a6bd ef96 8b3d e06c 633d eab6 f1bd
00000390: 42b4 78bd f2e0 643d 5fb3 b23d 7a5f be3d
000003a0: 636b cfbd a7b7 47bd c0be e83d c852 fc3d
000003b0: 009e e5bd b0bb 3fbe 3774 2a3d cb5d 44be
000003c0: 9f90 c53d 0b48 6cbe e2c1 3d3e b9fe e93d
000003d0: bd16 283d 82f1 dd3d 3d17 a53d 6345 10bd
000003e0: 3146 da3c edb7 ebbb 93ec fe3d cec7 113d
000003f0: 939e 3d3e aa82 813c 30ad 59be 05a8 d5bd

rnn.bias_ih_l0 f4 [128]
0.23763452 0.23686974 -0.15163223 0.087051325 0.09478558 -0.11340785 0.09235917 -0.12543032
0.0067897267 -0.014555715 0.06380718 -0.19179498 0.24903618 0.10150042 0.029577425 -0.002580078
0.1883167 0.007942948 0.100564554 -0.115341455 -0.009436046 0.054007016 0.25245622 0.05854066
-0.036119096 -0.1443064 0.08599231 0.11774429 0.017178016 -0.03148448 0.037536673 -0.087908365
0.084778614 -0.026968664 0.22253455 0.04974774 -0.2032845 -0.13084428 0.0212333 -0.1404211
0.00462084 0.11199181 0.2790941 -0.069977105 0.0319606 -0.09420991 0.09362365 -0.09260145
0.18226528 0.036664575 -0.14926238 -0.06792022 -0.09997413 -0.08676168 -0.042977 0.22382505
0.063942924 -0.019654488 0.11630284 -0.05985401 0.039194137 0.04540139 0.073895104 -0.08372482
0.098662294 -0.09828716 -0.087057956 0.12684946 0.20857479 0.05738906 -0.024723014 -0.039585516
0.15995713 -0.009358126 -0.11040563 -0.035528287 -0.114734136 -0.15630382 0.115854904 0.0133089395
0.12839147 0.16437551 -0.18081538 0.13057067 -0.13639982 0.074252844 -0.06102761 -0.05278367
-0.2037472 -0.13182503 -0.00039242028 -0.019695291 -0.06886426 -0.0946852 -0.140861 0.13244246
0.11743228 -0.039037652 -0.07576729 0.18759412 0.086292006 -0.07207306 -0.19211988 0.1394516
0.0029825226 -0.18703026 -0.17970459 -0.06579021 -0.09942778 -0.02454148 0.110994324 0.061876044
-0.138497 0.038612403 -0.05663936 0.022774916 0.3242896 0.07959195 -0.13648483 -0.07528741
-0.025801688 0.20658317 0.1282908 0.056337737 -0.11035632 -0.12878673 -0.041585777 0.033225585
00000000: 7756 733e fb8d 723e 7b45 1bbe f747 b23d
00000010: f11e c23d 6042 e8bd ce26 bd3d ce70 00be
00000020: 5b7c de3b 187b 6ebc 57ad 823d e765 44be
00000030: 5703 7f3e 74df cf3d 5b4c f23c 8716 29bb
00000040: 18d6 403e 2323 023c caf4 cd3d 2438 ecbd
00000050: a599 1abc 7636 5d3d f141 813e 55c8 6f3d
00000060: 9ef1 13bd 0fc5 13be bc1c b03d eb23 f13d
00000070: e9b8 8c3c dff5 00bd 0ec0 193d 4d09 b4bd
00000080: 69a0 ad3d 63ed dcbc 19e0 633e 49c4 4b3d
00000090: d029 50be 0bfc 05be 75f1 ad3c 8dca 0fbe
000000a0: 6a6a 973b f65b e53d 6ce5 8e3e 2850 8fbd
000000b0: 1ee9 023d 20f1 c0bd c2bd bf3d d4a5 bdbd
000000c0: c0a3 3a3e 982d 163d 3dd8 18be c219 8bbd
000000d0: 3dbf ccbd 1cb0 b1bd a708 30bd 6532 653e
000000e0: 82f4 823d 7302 a1bc 2f30 ee3d 7a29 75bd
000000f0: 088a 203d cff6 393d 5156 973d eb77 abbd
00000100: 750f ca3d c74a c9bd 714b b2bd d3e4 013e
00000110: a194 553e ca10 6b3d eb87 cabc 6c24 22bd
00000120: cdcb 233e d352 19bc 591c e2bd 1c86 11bd
00000130: bbf9 eabd 1c0e 20be 5645 ed3d bd0d 5a3c
00000140: 0e79 033e 0e52 283e ab27 39be 51b4 053e
00000150: 65ac 0bbe e011 983d 16f8 79bd b133 58bd
00000160: 1ba3 50be 24fd 06be c2bd cdb9 0558 a1bc
00000170: b508 8dbd 50ea c1bd de3d 10be ff9e 073e
00000180: 5680 f03d f2e5 1fbd e22b 9bbd ac18 403e
00000190: ddb9 b03d 0a9b 93bd 13bb 44be 66cc 0e3e
000001a0: 6d76 433b dc84 3fbe 7b04 38be 05bd 86bd
000001b0: cba0 cbbd 370b c9bc fe50 e33d bc71 7d3d
000001c0: 28d2 0dbe 0a28 1e3d acfe 67bd 7692 ba3c
000001d0: 4909 a63e 1b01 a33d aec2 0bbe 4930 9abd
000001e0: 105e d3bc 8a8a 533e aa5e 033e 66c2 663d
000001f0: 7f02 e2bd abe0 03be d955 2abd 8d17 083d

rnn.bias_hh_l0 f4 [128]
0.25415286 0.22509728 -0.09383395 0.11101569 0.08777562 -0.14569788 0.02095184 -0.061383396
-0.0027331556 -0.020162407 0.11189803 -0.2332595 0.2252065 0.051135086 -0.016863864 -0.012821194
0.20441386 -0.025177639 0.040750295 -0.17606504 -0.055877626 0.09536996 0.25409082 0.063362576
-0.004333359 -0.11640273 0.028343977 0.09125039 0.055598464 0.03062535 0.10076873 -0.078926794
0.08686931 -0.05521324 0.23657006 0.044588067 -0.20573051 -0.12967889 -0.007611348 -0.1668483
-0.04974323 0.152736 0.34289077 -0.06624959 0.0075434456 -0.027887287 0.090454325 -0.07629922
0.15531349 0.080507725 -0.15731505 -0.04901921 -0.11297704 -0.03225677 -0.09034139 0.22505161
0.08487061 -0.04898683 0.09448622 -0.052691948 0.028930344 0.014887571 0.02445635 -0.115611084
0.07173669 -0.06277415 -0.15430366 0.12416914 0.24795738 0.065988086 -0.074070916 -0.08993197
0.12171927 -0.0012004307 -0.11543448 -0.04957222 -0.10866887 -0.17416632 0.122160256 0.04106602
0.056873873 0.17652737 -0.16419607 0.088879466 -0.12115758 0.09353116 -0.05072408 -0.08196303
-0.20390393 -0.07592794 -0.031579196 0.050520178 -0.06556616 -0.111772336 -0.10670737 0.117480926
0.12214645 -0.017958144 -0.10083167 0.2319992 0.021110073 -0.104228035 -0.21364415 0.09815474
-0.052866254 -0.13417356 -0.14243674 -0.030904125 -0.08060339 -0.045197368 0.09367916 0.09803974
-0.112516746 0.083887264 0.0070393914 0.08831146 0.32486546 0.086611524 -0.086652994 -0.11716832
-0.025128348 0.19972722 0.064823195 0.086634725 -0.050901312 -0.0917481 -0.04906284 0.054483056
00000000: 5320 823e e77f 663e 042c c0bd 325c e33d
00000010: b4c3 b33d d331 15be 31a3 ab3c 286d 7bbd
00000020: be1e 33bb a22b a5bc cb2a e53d 94db 6ebe
00000030: 889c 663e 0673 513d 1626 8abc fc0f 52bc
00000040: de51 513e 5641 cebc c8e9 263d 654a 34be
00000050: f0df 64bd 5351 c33d 3118 823e 3dc4 813d
00000060: dafe 8dbb 8e64 eebd a131 e83c 7ce1 ba3d
00000070: 37bb 633d 04e2 fa3c d65f ce3d 5fa4 a1bd
00000080: 89e8 b13d 4727 62bd 6c3f 723e faa1 363d
00000090: 05ab 52be 8bca 04be 9d68 f9bb 48da 2abe
000000a0: 8fbf 4bbd d366 1c3e 618f af3e ddad 87bd
000000b0: 022f f73b e173 e4bc 1e40 b93d c442 9cbd
000000c0: 800a 1f3e 3ce1 a43d 3217 21be 5ec8 48bd
000000d0: 8260 e7bd ad1f 04bd e804 b9bd ee73 663e
000000e0: a4d0 ad3d 6aa6 48bd fe81 c13d 83d3 57bd
000000f0: 54ff ec3c 00eb 733c af58 c83c 81c5 ecbd
00000100: b0ea 923d bc8f 80bd c701 1ebe 644c fe3d
00000110: 8ae8 7d3e c324 873d 7eb2 97bd 412e b8bd
00000120: f447 f93d c557 9dba ea68 ecbd 3d0c 4bbd
00000130: c98d debd a858 32be 282f fa3d d834 283d
00000140: 94f4 683d 97c3 343e 0423 28be 7006 b63d
00000150: 7721 f8bd 448d bf3d 0ec4 4fbd 3cdc a7bd
00000160: 31cc 50be 1c80 9bbd 3059 01bd 3fee 4e3d
00000170: 8d47 86bd e5e8 e4bd 6589 dabd d799 f03d
00000180: eb27 fa3d f51c 93bc d680 cebd 3391 6d3e
00000190: 08ef ac3c 8275 d5bd 88c5 5abe 5a05 c93d
000001a0: 498a 58bd cb64 09be f0da 11be a62a fdbc
000001b0: 6413 a5bd e020 39bd dcda bf3d 0fc9 c83d
000001c0: 2e6f e6bd 16cd ab3d b2aa e63b a4dc b43d
000001d0: c454 a63e 6261 b13d 2077 b1bd f2f5 efbd
000001e0: f7d9 cdbc 4b85 4c3e 06c2 843d 8c6d b13d
000001f0: e57d 50bd 6ee6 bbbd 1ef6 48bd a029 5f3d

rnn.weight_ih_l1 f4 [128, 128]
0.046782367 0.4055945 -0.57520133 -0.1677804 0.2605856 0.39407098 -0.07542783 -0.36460584
-0.5832324 0.7755494 0.29916 -0.5090034 0.33211377 -0.25700057 0.16235287 0.26018265
0.28732273 -0.28899035 -0.15194763 0.2767081 0.06957442 -0.4142026 0.24436866 -0.2660764
0.13060145 -0.5039153 -0.17369072 -0.13051021 -0.48109102 0.09510893 -0.037138484 0.08173078
-0.092934944 -0.15012816 0.07761836 -0.33492637 -0.015854642 -0.1316036 0.6750516 0.6003223
0.35601294 -0.402976 0.6090479 -0.1709214 -0.07979029 0.3999022 0.44673836 0.52264476
-0.19719659 -0.2415099 0.21810907 0.4636692 -0.45471936 -0.042947862 -0.29163286 0.65123314
0.3751045 0.5405811 -0.0102292625 0.24308245 0.33677182 -0.4419577 0.38413447 0.15815496
-0.03753321 0.39552066 -0.19785346 0.33424047 -0.15133704 -0.28746042 0.8091528 -0.7526555
0.23344797 -0.23884833 -0.41584277 -0.058895744 0.16965206 -0.06930557 0.58548826 0.05924928
-0.072583646 -0.014803099 0.4354588 -0.0706995 0.009802185 -0.09737376 0.51525384 -0.3781544
0.02007249 -0.318791 -0.10693937 0.21470322 0.25590444 0.2988516 0.4066758 0.21798605
0.18464889 0.5258173 0.39123118 0.015936516 0.36925185 -0.5033647 0.69377023 0.18045056
0.366819 0.051019788 0.026477978 0.08578173 -0.33436462 -0.2565163 0.49051318 0.21117172
-0.22980103 -0.065103404 -0.31337175 -0.013757158 -0.017357804 0.0038677598 -0.41780418 0.19099869
-0.24177095 0.36913687 0.1527671 -0.11015309 -0.34205002 -0.13752346 -0.21914522 0.64948326
0.21890098 -0.038974024 0.39606702 0.35468727 -0.21365023 0.21461093 0.57568955 -0.05849915
0.63401765 -0.7501639 0.5538612 0.26664454 -0.015919859 0.043153875 -0.5914692 -0.038359202
0.20273685 0.2023279 -0.058764555 0.20985788 0.23412046 0.10436193 0.67713803 -0.029175298
-0.75834805 -0.02246108 -0.3993932 0.0821967 -0.04797583 0.29437456 0.7176193 -0.17675835
0.082108 0.15629803 -0.056028027 0.8545833 0.006461123 -0.18516518 -0.13185818 -0.1687101
0.020808402 -0.11456266 0.4447468 -0.029000234 0.34290007 -0.35863903 0.020771977 -0.014790222
0.33809572 -0.46537545 -0.4467845 -0.05706219 -0.3896543 0.10204354 0.24709216 -0.28347528
-0.0034321302 -0.15887462 0.030298404 0.07396807 -0.04467599 0.12385485 -0.08977719 -0.08917121
0.16973189 0.1000892 -0.03723687 0.37198314 0.0055504073 -0.2722753 -0.11397676 0.098356195
-0.5016359 0.28926757 0.14316903 -0.7145194 0.8287061 0.30288795 -0.11315287 -0.2197384
-0.16543154 0.48618507 -0.36559147 0.14429101 -0.04996731 0.37638888 0.7093716 -0.3645646
-0.2131124 0.03551083 -0.20339419 0.47103015 0.7626616 0.2180629 -0.44724974 0.20367761
-0.058284804 0.111736864 -0.1854635 0.28121454 0.015707895 -0.6579843 0.1335191 -0.011777452
0.079465136 -0.16673481 -0.1848493 -0.6276305 -0.23137726 -0.3422729 0.21638016 0.53120893
-0.38567773 -0.2683229 -0.41493216 0.288439 0.057678197 -0.008149072 0.060734782 0.39567572
-0.27821946 0.5331915 -0.42757145 -0.06574743 0.5082622 0.36651072 0.76726496 0.0023246128
00000000: de9e 3f3d 15aa cf3e 6540 13bf a0ce 2bbe
00000010: 7a6b 853e acc3 c93e e879 9abd 9ead babe
00000020: b84e 15bf 688a 463f 802b 993e 0c4e 02bf
00000030: d10a aa3e 9495 83be d53f 263e a936 853e
00000040: f71b 933e 8bf6 93be 2998 1bbe afac 8d3e
00000050: 097d 8e3d 5d12 d4be c73b 7a3e 2a3b 88be
00000060: 63bc 053e 9800 01bf fbdb 31be 78a4 05be
00000070: 9051 f6be 78c8 c23d 861e 18bd 7862 a73d
00000080: ad54 bebd 32bb 19be 60f6 9e3d 787b abbe
00000090: 98e1 81bc 18c3 06be 2fd0 2c3f b9ae 193f
000000a0: 5447 b63e df52 cebe 90ea 1b3f 0506 2fbe
000000b0: 1769 a3bd fbbf cc3e e4ba e43e 0ccc 053f
000000c0: e7ed 49be 5f4e 77be fc57 5f3e 0d66 ed3e
000000d0: fad0 e8be 19ea 2fbd e750 95be 37b7 263f
000000e0: b20d c03e 8663 0a3f a398 27bc 9bea 783e
000000f0: 5b6d ac3e 4848 e2be 46ad c43e 60f3 213e
00000100: 6cbc 19bd af81 ca3e 199a 4abe 9121 ab3e
00000110: 19f8 1abe 032e 93be a324 4f3f 08ae 40bf
00000120: fc0c 6f3e a894 74be 58e9 d4be aa3c 71bd
00000130: 45b9 2d3e 14f0 8dbd 8fe2 153f 5faf 723d
00000140: bca6 94bd b388 72bc 75f4 de3e e6ca 90bd
00000150: 5899 203c e56b c7bd ade7 033f 749d c1be
00000160: 106f a43c 9338 a3be 0703 dbbd 29db 5b3e
00000170: e805 833e 1403 993e cf37 d03e bc37 5f3e
00000180: 9914 3d3e f69b 063f 744f c83e 4c8d 823c
00000190: 940e bd3e 82dc 00bf ed9a 313f 08c8 383e
000001a0: b3cf bb3e 20fa 503d 58e8 d83c 55ae af3d
000001b0: d731 abbe 1b56 83be 8b24 fb3e 663d 583e
000001c0: f650 6bbe ef54 85bd 4372 a0be b465 61bc
000001d0: f431 8ebc 3e7a 7d3b 6eea d5be 2995 433e
000001e0: ce92 77be 82ff bc3e fb6e 1c3e f197 e1bd
000001f0: 2e21 afbe f3d2 0cbe 9b67 60be 8944 263f
00000200: 9427 603e 3aa3 1fbd 4cc9 ca3e 9299 b53e
00000210: 20c7 5abe f8c2 5b3e 6460 133f ce9c 6fbd
00000220: fb4e 223f be0a 40bf d9c9 0d3f a285 883e
00000230: 5d6a 82bc 1ec2 303d 876a 17bf 8a1e 1dbd
00000240: 409a 4f3e 0c2f 4f3e 1ab3 70bd fce4 563e
00000250: 46bd 6f3e b5bb d53d eb58 2d3f 0901 efbc
00000260: 1923 42bf 4d00 b8bc 447d ccbe be56 a83d
00000270: 4e82 44bd 43b8 963e e6b5 373f 2400 35be
00000280: 3d28 a83d 970c 203e a57d 65bd f9c5 5a3f
00000290: d4b7 d33b f19b 3dbe d505 07be 57c2 2cbe
000002a0: 6276 aa3c d49f eabd dab5 e33e e691 edbc
000002b0: 9990 af3e 899f b7be fe29 aa3c b052 72bc
000002c0: e21a ad3e b145 eebe f0c0 e4be 0bba 69bd
000002d0: c580 c7be 34fc d03d ba05 7d3e ac23 91be
000002e0: 97ed 60bb 07b0 22be 5c34 f83c 927c 973d
000002f0: 2cfe 36bd 9da7 fd3d 1add b7bd 659f b6bd
00000300: 32ce 2d3e 91fb cc3d b085 18bd 9374 be3e
00000310: 31e0 b53b ab67 8bbe a66c e9bd f96e c93d
00000320: 366b 00bf e11a 943e e79a 123e beea 36bf
00000330: 1526 543f 2114 9b3e b1bc e7bd 1a03 61be
00000340: e366 29be 40ed f83e ce2e bbbe 06c1 133e
00000350: 86aa 4cbd 0bb6 c03e 6199 353f 36a8 babe
00000360: 233a 5abe ce73 113d 9146 50be dd2a f13e
00000370: ca3d 433f e14b 5f3e ebfd e4be dd90 503e
00000380: 0cbc 6ebd 4cd6 e43d 25ea 3dbe 5afb 8f3e
00000390: d8ad 803c a971 28bf 3bb9 083e 37f6 40bc
000003a0: 9ebe a23d 88bc 2abe 2349 3dbe 64ac 20bf
000003b0: 29ee 6cbe 653e afbe c392 5d3e 4ffd 073f
000003c0: 8d77 c5be 9f61 89be fd71 d4be 47ae 933e
000003d0: f93f 6c3d af83 05bc 09c5 783d 0296 ca3e
000003e0: c872 8ebe 3d7f 083f a5ea dabe 97a6 86bd
000003f0: 791d 023f 4ba7 bb3e 7a6b 443f 8858 183b

rnn.weight_hh_l1 f4 [128, 128]
-0.37874314 -0.06793317 -0.07672179 -0.013403158 -0.02731653 -0.2762716 0.2546111 0.1081409
0.5089826 -0.19391972 -0.18108526 -0.30443013 -0.13669962 -0.112416014 0.102676146 0.15096353
0.052965797 -0.28268868 0.13603128 0.044542156 -0.089899 -0.04728484 0.07387288 0.23450413
-0.07994569 0.25787452 -0.06772924 -0.028230816 0.08209444 -0.02637614 0.16943425 -0.06799496
0.02059341 0.10041504 -0.19709857 0.088844754 -0.20560808 -0.33341822 -0.21570462 -0.13663997
0.1909427 -0.24465072 -0.26220402 -0.12422238 0.06263087 -0.03516011 -0.06341948 -0.19206347
-0.10861365 0.26849237 0.59772617 0.17112592 0.5088421 -0.106022105 -0.2485113 -0.20818128
-0.024998039 -0.031344973 -0.13601178 -0.470461 -0.13868785 -0.21377012 0.24871027 -0.16817594
0.050383274 0.36687547 -0.4489348 0.020877322 0.10795073 0.36816102 0.33080977 -0.083918296
-0.10117771 -0.106241755 -0.0010337015 0.35339794 -0.4260627 -0.032298442 -0.090613626 -0.15920654
0.00015569961 -0.43650305 0.23614624 -0.33703822 -0.64864135 0.27285957 -0.012078275 0.071514644
0.1183956 0.3395374 0.42620328 0.2553467 0.18900311 -0.17446026 0.18023407 0.20007293
0.29117268 0.08270187 0.3186254 0.39680943 -0.10414856 -0.31248125 -0.10183212 0.024707157
-0.115042076 0.29102293 -0.1513187 0.014966554 -0.019695329 -0.007180056 -0.342251 -0.28886253
-0.032795943 0.023728235 -0.22434805 -0.3191859 -0.16209081 -0.10306531 0.12628146 -0.26008904
-0.22692445 0.16465917 0.43663153 0.39028195 -0.3865213 0.22328031 0.09358116 0.55141234
-0.28546643 -0.20169199 -0.13661177 -0.19852416 0.19776306 0.008766916 0.017533388 0.030409697
0.13499707 -0.14053923 -0.067747824 0.097463936 -0.29145622 -0.18756442 0.35292876 0.07954373
0.12775268 0.21083787 0.17749932 0.24327539 0.19643755 -0.18685023 -0.092476785 0.13077086
-0.24620116 -0.35384566 -0.079353645 -0.22241943 -0.28591412 -0.12962987 0.44188124 0.016681451
0.23260984 0.107430026 -0.09829111 0.010505554 -0.10677546 -0.20160079 0.06245747 0.41299665
0.40089938 0.07800053 0.27223283 -0.094946764 0.24287178 0.3112994 0.009074293 0.16324809
-0.062039588 0.011679257 -0.034532506 -0.15464984 -0.24335955 0.22212243 -0.059173953 -0.13342158
-0.09318561 0.1179339 0.052208666 0.17548245 0.2834262 0.4701349 0.10418351 -0.13476747
0.03266944 -0.2785031 0.121957615 0.368501 0.12630923 -0.342665 -0.032955516 -0.119233385
-0.3385378 -0.14575753 -0.04847237 -0.05242933 -0.22873065 0.07318615 -0.14922804 0.377864
-0.2060709 -0.24558687 -0.036174785 0.110701635 0.18244526 -0.10111714 -0.024153985 -0.36276644
-0.14848232 -0.30349305 -0.17940475 -0.06254721 0.34901345 -0.14020187 0.1763952 0.188768
0.30606365 0.43424982 -0.07541125 -0.09939903 -0.029860258 -0.28628266 -0.093887374 0.38773343
-0.056764442 -0.07460888 0.20000388 -0.016621854 0.48726785 -0.4181419 -0.22097132 -0.1287125
0.12582493 0.19397722 0.010894606 0.13113411 0.31875908 0.09401625 -0.002247971 -0.17731434
-0.10816476 -0.1950376 0.09221398 -0.34984833 0.115802445 0.26833686 -0.39503995 0.25496343
00000000: 9fea c1be 8c20 8bbd 5020 9dbd eb98 5bbc
00000010: eac6 dfbc 7973 8dbe 635c 823e fa78 dd3d
00000020: af4c 023f e492 46be 6a6e 39be 44de 9bbe
00000030: fcfa 0bbe 5e3a e6bd df47 d23d 2f96 1a3e
00000040: aaf2 583d 92bc 90be c94b 0b3e d671 363d
00000050: f81c b8bd c0ad 41bd aa4a 973d da21 703e
00000060: 91ba a3bd 2108 843e a1b5 8abd 5044 e7bc
00000070: 2121 a83d c612 d8bc 2c80 2d3e f140 8bbd
00000080: 83b3 a83c 67a6 cd3d 35d4 49be 3df4 b53d
00000090: ed8a 52be cbb5 aabe ace1 5cbe 59eb 0bbe
000000a0: 7c86 433e b885 7abe 9b3f 86be 4e68 febd
000000b0: 9d44 803d 0c04 10bd 13e2 81bd 49ac 44be
000000c0: d570 debd d577 893e 9504 193f a23b 2f3e
000000d0: 7a43 023f 1e22 d9bd bf79 7ebe 792d 55be
000000e0: b0c8 ccbc 9663 00bd ac46 0bbe 44e0 f0be
000000f0: 3004 0ebe 8ee6 5abe e8ad 7e3e 5036 2cbe
00000100: b15e 4e3d 1ad7 bb3e c8da e5be eb06 ab3c
00000110: 4615 dd3d 9a7f bc3e e65f a93e 5bdd abbd
00000120: 4236 cfbd 4795 d9bd 447d 87ba 93f0 b43e
00000130: e424 dabe 5f4b 04bd a393 b9bd 0a07 23be
00000140: 4c43 2339 547d dfbe 52d0 713e 4690 acbe
00000150: 5c0d 26bf 40b4 8b3e f5e3 45bc 4576 923d
00000160: 6479 f23d d9d7 ad3e 5137 da3e cdbc 823e
00000170: 088a 413e b6a5 32be 488f 383e ebdf 4c3e
00000180: 9614 953e 995f a93d de22 a33e 9b2a cb3e
00000190: d74b d5bd 8bfd 9fbe 5c8d d0bd aa66 ca3c
000001a0: 2e9b ebbd f500 953e 4af3 1abe 4736 753c
000001b0: 1958 a1bc ad46 ebbb 863b afbe cae5 93be
000001c0: 0a55 06bd b761 c23c 7fbb 65be 566c a3be
000001d0: 22fb 25be e813 d3bd ed4f 013e 642a 85be
000001e0: e25e 68be 6a9c 283e 2b8e df3e 09d3 c73e
000001f0: 1fe6 c5be 98a3 643e 7ba7 bf3d 5c29 0d3f
00000200: a828 92be 5888 4ebe f5e3 0bbe eb49 4bbe
00000210: 6682 4a3e 1ca3 0f3c 2ea2 8f3c c21d f93c
00000220: ac3c 0a3e 84e9 0fbe 5fbf 8abd 2c9b c73d
00000230: c039 95be e310 40be 14b3 b43e d3e7 a23d
00000240: 99d1 023e e2e5 573e 62c2 353e 2f1d 793e
00000250: ed26 493e ab55 3fbe 7864 bdbd cce8 053e
00000260: 281c 7cbe 422b b5be 2a84 a2bd ebc1 63be
00000270: 5663 92be b1bd 04be 423e e23e 8aa7 883c
00000280: 4631 6e3e 4604 dc3d d94c c9bd 7d1f 2c3c
00000290: 18ad dabd 7070 4ebe 67d3 7f3d 4c74 d33e
000002a0: af42 cd3e bebe 9f3d 1a62 8b3e 7373 c2bd
000002b0: 61b3 783e a362 9f3e 58ac 143c 822a 273e
000002c0: 391d 7ebd 5b5a 3f3c f571 0dbd 875c 1ebe
000002d0: 3f33 79be 1074 633e 6360 72bd ab9f 08be
000002e0: 19d8 bebd 5487 f13d c1d8 553d acb1 333e
000002f0: 3d1d 913e 86b5 f03e 2a5e d53d 7c00 0abe
00000300: 64d0 053d f597 8ebe eac4 f93d 2aac bc3e
00000310: 3557 013e c971 afbe 5dfc 06bd a230 f4bd
00000320: d454 adbe 7641 15be f78a 46bd 23c0 56bd
00000330: 5e38 6abe 9fe2 953d 3ccf 18be 6477 c13e
00000340: 4004 53be 207b 7bbe 032c 14bd 8ab7 e23d
00000350: eed2 3a3e 8116 cfbd 94de c5bc 86bc b9be
00000360: c00b 18be 7163 9bbe e1b5 37be c018 80bd
00000370: e4b1 b23e 1491 0fbe f1a0 343e 664c 413e
00000380: 60b4 9c3e fe55 de3e 3771 9abd b891 cbbd
00000390: 809d f4bc a493 92be 0648 c0bd ff84 c63e
000003a0: d581 68bd 8acc 98bd d1cd 4c3e 8e2a 88bc
000003b0: 2c7b f93e b216 d6be 4e46 62be 36cd 03be
000003c0: 40d8 003e f7a1 463e 4a7f 323c 0548 063e
000003d0: 6434 a33e 978b c03d b252 13bb e491 35be
000003e0: 7c85 ddbd f0b7 47be afda bc3d 521f b3be
000003f0: d529 ed3d 7363 893e ad42 cabe 918a 823e

rnn.bias_ih_l1 f4 [128]
0.2607416 0.03880477 -0.8966328 -0.09519917 -0.049137417 -0.28526005 -0.27597946 -0.40545505
0.10608841 0.13568394 -0.04392254 0.59085774 -0.29611543 0.01275231 -0.4191095 0.15201902
-0.34227052 0.02356464 -0.053993084 -0.21108687 0.3195455 0.15691583 -0.08420351 0.2335772
-0.3177679 -0.5902148 -0.09313827 0.13247861 0.3816793 -0.65485704 -0.104010105 -0.7506448
0.17391291 -0.00089243276 0.4516803 -0.32143596 0.4498718 0.14851265 -0.15900443 0.42268878
-0.070197746 0.16811804 0.3818955 -0.0057781367 0.4417413 -0.59334177 -0.06811613 -0.2733337
-0.42364678 0.026581414 0.013406404 -0.010700267 0.29508314 0.27797782 0.22339664 0.29723543
-0.14414556 -0.15764613 -0.28268397 -0.5489369 -0.5259865 0.19497581 -0.28791365 0.46947855
-0.43688494 0.24878903 -0.033192985 -0.19192836 -0.265042 0.15181144 0.08855151 0.33689693
-0.39923945 -0.25978935 -0.2126889 0.08108283 0.32618988 0.18923314 -0.27887738 0.43895167
-0.34594932 -0.17588758 -0.23255987 -0.2917323 -0.100957975 -0.21758512 -0.32426915 -0.183078
0.120805 -0.22824126 0.4201737 0.08812626 0.5489097 -0.5044007 0.3498758 0.39256364
0.28535792 -0.60620403 0.008564753 0.10416989 -0.3715445 0.033240087 -0.39195335 -0.31605622
0.39833778 0.18156354 -0.0960765 0.030976348 0.3714791 -0.24837786 -0.7166239 0.022367243
0.3345703 0.003043552 0.4536962 0.26819137 -0.24842864 -0.0977833 -0.09312154 -0.24158807
0.3867749 -0.2819758 0.019707821 0.14879535 -0.381246 0.11276847 -0.29742646 0.23650035
00000000: ec7f 853e c0f1 1e3d ba89 65bf c8f7 c2bd
00000010: 5144 49bd 9b0d 92be 2e4d 8dbe ce97 cfbe
00000020: e144 d93d bbf0 0a3e 1fe8 33bd 7442 173f
00000030: 719c 97be 11ef 503c 8595 d6be e0aa 1b3e
00000040: 153e afbe a20a c13c da27 5dbd 2827 58be
00000050: 789b a33e 8bae 203e e472 acbd dd2e 6f3e
00000060: 79b2 a2be 5118 17bf 47bf bebd 79a8 073e
00000070: 786b c33e b6a4 27bf 4003 d5bd 422a 40bf
00000080: 3a16 323e 26f2 69ba a442 e73e 4193 a4be
00000090: 9955 e63e b313 183e 0fd2 22be aa6a d83e
000000a0: d6c3 8fbd 2327 2c3e cf87 c33e 8656 bdbb
000000b0: ea2b e23e 3fe5 17bf 7880 8bbd 65f2 8bbe
000000c0: 3be8 d8be 44c1 d93c 89a6 5b3c 2c50 2fbc
000000d0: 2315 973e 1c53 8e3e 17c2 643e 3e2f 983e
000000e0: e59a 13be fd6d 21be f4bb 90be 2187 0cbf
000000f0: 0da7 06bf bda7 473e 6b69 93be 7e5f f03e
00000100: 62af dfbe 8dc2 7e3e 5ef5 07bd de88 44be
00000110: 96b3 87be 7574 1b3e 7e5a b53d c17d ac3e
00000120: 1d69 ccbe 1c03 85be 1ecb 59be c10e a63d
00000130: 5c02 a73e 55c6 413e 04c9 8ebe 46be e03e
00000140: 4520 b1be e01b 34be 2d24 6ebe f05d 95be
00000150: 0ec3 cebd a2ce 5ebe 9b06 a6be cd78 3bbe
00000160: 9d68 f73d 14b8 69be 0221 d73e 8a7b b43d
00000170: 5985 0c3f 6720 01bf ec22 b33e 1afe c83e
00000180: 6f1a 923e 3030 1bbf 2e53 0c3c 0657 d53d
00000190: 153b bebe c226 083d 1cae c8be 1fd2 a1be
000001a0: eef2 cb3e cbeb 393e c2c3 c4bd 1cc2 fd3c
000001b0: 8232 be3e c456 7ebe aa74 37bf 823b b73c
000001c0: cc4c ab3e 5476 473b de4a e83e 6150 893e
000001d0: 1464 7ebe 9c42 c8bd 82b6 bebd dd62 77be
000001e0: 5c07 c63e 225f 90be 4c72 a13c cf5d 183e
000001f0: ad32 c3be 28f3 e63d 4848 98be 262d 723e

rnn.bias_hh_l1 f4 [128]
0.27315968 0.06165439 -0.92945594 -0.07319682 -0.052650217 -0.30279145 -0.26742274 -0.42183557
0.11747318 0.17755474 -0.093799554 0.5947004 -0.35288185 0.016969476 -0.38113144 0.09972688
-0.37175927 0.09796968 -0.048426848 -0.23561643 0.31416595 0.13690712 -0.021519301 0.24652235
-0.33232808 -0.5735216 -0.076075666 0.08916232 0.34118214 -0.58655363 -0.09378888 -0.77567583
0.2259741 -0.018531365 0.41473216 -0.32945755 0.4603885 0.09499895 -0.1568404 0.48700583
-0.054203942 0.14406583 0.3842032 -0.015922954 0.4966727 -0.55231214 -0.048880447 -0.2550536
-0.43817466 -0.009940752 -0.017833022 0.011759527 0.33429033 0.3230285 0.17457218 0.26063308
-0.16658781 -0.22411726 -0.2827411 -0.56466216 -0.46609685 0.2689356 -0.3317153 0.49141467
-0.4571569 0.20371936 -0.0010851944 -0.23342997 -0.24223602 0.08367996 0.09337196 0.38821915
-0.36761644 -0.24903896 -0.2395346 0.004677421 0.31041268 0.19485322 -0.24425551 0.43671852
-0.30611143 -0.18885493 -0.15833575 -0.25061128 -0.09352736 -0.24594212 -0.28967288 -0.23554249
0.136804 -0.21429455 0.49132097 0.109584905 0.50492394 -0.48050442 0.3696439 0.4021578
0.28369278 -0.6061379 0.03128843 0.11746762 -0.3399841 0.03396551 -0.41802964 -0.2900086
0.36586994 0.14360012 -0.10476577 0.058801107 0.312331 -0.26960045 -0.6902223 -0.00566914
0.3254369 0.0071062385 0.41883832 0.29479346 -0.25375065 -0.06588177 -0.06364299 -0.27444452
0.31552023 -0.32589632 -0.010711449 0.18543676 -0.3819475 0.19014303 -0.24918544 0.2414796
00000000: 96db 8b3e 5089 7c3d d3f0 6dbf 37e8 95bd
00000010: c1a7 57bd 7b07 9bbe a2eb 88be d5fa d7be
00000020: c795 f03d e9d0 353e fb19 c0bd 493e 183f
00000030: eeac b4be 9203 8b3c a923 c3be 9b3d cc3d
00000040: 3b57 bebe 54a4 c83d 3b5b 46bd 6f45 71be
00000050: 5cda a03e 6131 0c3e 3f49 b0bc 5b70 7c3e
00000060: e826 aabe 50d2 12bf 8fcd 9bbd bc9a b63d
00000070: 6daf ae3e 6128 16bf 6214 c0bd b192 46bf
00000080: c165 673e 17cf 97bc c657 d43e a9ae a8be
00000090: 0bb8 eb3e cf8e c23d c59a 20be d458 f93e
000000a0: f404 5ebd fe85 133e 48b6 c43e db70 82bc
000000b0: e24b fe3e 5464 0dbf dd36 48bd 6396 82be
000000c0: 6e58 e0be 89de 22bc 8f16 92bc 08ab 403c
000000d0: 1a28 ab3e fe63 a53e 0dc3 323e b371 853e
000000e0: ff95 2abe ff7e 65be 71c3 90be b38d 10bf
000000f0: 3fa4 eebe edb1 893e 96d6 a9be b49a fb3e
00000100: 7810 eabe cf9b 503e 153d 8eba 4408 6fbe
00000110: b80c 78be 6660 ab3d cc39 bf3d a9c4 c63e
00000120: 3938 bcbe 1204 7fbe 8f48 75be 0d45 993b
00000130: 69ee 9e3e 9a87 473e 1e1e 7abe 9299 df3e
00000140: a3ba 9cbe 3063 41be c422 22be 1f50 80be
00000150: 468b bfbd 40d8 7bbe 0150 94be 0d32 71be
00000160: 5916 0c3e 0870 5bbe 6c8e fb3e 0d6e e03d
00000170: b242 013f ad04 f6be f741 bd3e a1e7 cd3e
00000180: 2e40 913e da2b 1bbf 4c28 003d dd92 f03d
00000190: 6512 aebe 6b1f 0b3d fb07 d6be 027c 94be
000001a0: 4e53 bb3e e90b 133e 708f d6bd 6ed9 703d
000001b0: d9e9 9f3e 1209 8abe 69b2 30bf 31c4 b9bb
000001c0: aa9f a63e 73db e83b fa71 d63e 2bef 963e
000001d0: 9beb 81be 05ed 86bd 4257 82bd fe83 8cbe
000001e0: de8b a13e e2db a6be 137f 2fbc 22e3 3d3e
000001f0: 9f8e c3be dbb4 423e 782a 7fbe 6e46 773e

fc.weight f4 [62, 128]
-0.31337976 -0.23038505 -0.14975823 -0.17225567 0.5025043 -0.07499526 -0.36410627 0.03716016
0.59613484 -0.56408674 -0.43296054 -0.5455085 -0.44751176 -0.06823594 -0.068586536 -0.28163123
-0.003222693 -0.22588544 0.17859796 -0.51374954 -0.04194787 -0.22334848 -0.2424469 -0.28801936
-0.4134729 0.18776415 0.42720032 0.17973727 -0.21535999 0.24642137 -0.005375147 0.33417553
-0.04024461 -0.41468748 -0.4429639 -0.30958074 0.3486685 0.12582499 -0.091580525 0.19098434
0.30547145 0.28055504 0.41216227 0.008907647 0.13289665 0.14369968 -0.0867259 0.23634857
-0.48719013 0.37733775 0.327643 0.29574105 -0.074925505 0.061057933 0.24758792 0.006431839
0.10808248 0.0797847 0.9567234 0.07405967 -0.04935763 0.23036584 -0.97317797 -0.14319646
0.37685618 0.24563235 -0.066512905 0.18922417 0.2628611 0.08115992 0.32851034 0.14763424
0.30378273 0.18389015 -0.21899356 0.3241051 0.54907835 0.22619699 -0.27081537 0.11648472
-0.03016912 -0.059536327 0.05356295 0.011098591 -0.0021751914 0.54574317 0.15165669 0.027943257
0.2783347 0.11612539 0.5275355 0.51565063 -0.4327895 -0.03782857 -0.048995156 -0.78234845
-0.3928094 0.32285866 -0.6405284 0.39130563 0.48566192 0.22351055 -0.18829104 -0.16310808
-0.048150394 -0.07017489 -0.07949847 -0.2924209 -0.7406439 -0.26378062 -0.1922391 -0.025678175
0.40759993 0.20923032 0.25996554 0.21582006 -0.5264497 -0.013974008 0.18907206 0.08908927
-0.10718362 -0.1678827 0.09242708 -0.00068885146 -0.019810217 0.31430227 -0.3118252 0.50657934
-0.45426673 -0.53695667 -0.29929188 -0.29838985 0.6877445 0.06855456 -0.22270472 -0.10238934
0.19144127 -0.53206074 -0.5073148 0.0014918657 -0.37285638 0.52313954 0.07041883 -0.32593706
-0.1003374 -0.11392266 0.27222893 -0.56016904 -0.21054603 -0.24364214 -0.39430657 -0.38971922
-0.45796734 -0.14425835 0.56554097 0.11985063 -0.05229277 -0.09461243 0.252142 0.4506604
0.44636676 -0.37981504 -0.6152097 -0.52943444 0.21626773 0.028134359 -0.21979158 0.1954959
0.31019217 0.22184345 0.08955626 0.059465297 0.18478085 -0.00710922 -0.061575167 -0.33241755
-0.21358158 0.2793508 0.30708063 0.3468041 0.31915256 0.39562184 0.059345167 0.06917361
-0.033075567 0.021927832 0.5987839 -0.14785066 -0.24217544 0.22012433 0.17102367 -0.23249057
-0.018220147 0.051176615 -0.33974633 -0.15225175 0.024166677 0.10455047 0.3609037 -0.303784
-0.14277084 0.14189638 -0.05730203 0.34690475 0.62437546 0.17770009 -0.5650796 0.3114015
0.09711765 -0.1425557 0.5618108 -0.32000306 -0.60516995 0.54482454 0.28781992 0.05738099
0.36406842 0.19959652 0.49766958 0.49853924 -0.52406806 -0.2056097 -0.47877264 0.3566257
0.17688283 0.31290215 -0.62934166 0.32098272 0.58638567 0.2963938 -0.24234033 -0.32520366
0.4870804 -0.30808368 -0.10275845 -0.37506175 -0.85153925 -0.63838756 0.056984466 -0.12126404
0.43614513 0.31535608 0.15218583 -0.007819477 -0.39777818 -0.023108628 -0.22760439 0.04407048
-0.101931386 -0.44026953 -0.030983545 0.18830754 0.3199907 0.29722878 0.014799955 0.36041418
00000000: 5073 a0be 0fea 6bbe 395a 19be ca63 30be
00000010: 1fa4 003f 1d97 99bd 236c babe 4035 183d
00000020: 4b9c 183f fd67 10bf 01ad ddbe 72a6 0bbf
00000030: 4320 e5be 49bf 8bbd 1977 8cbd f831 90be
00000040: d133 53bb 834e 67be 62e2 363e 1785 03bf
00000050: 88d1 2bbd 77b5 64be 0044 78be 4677 93be
00000060: b8b2 d3be 3f45 403e 00ba da3e 0c0d 383e
00000070: 5487 5cbe e255 7c3e 0022 b0bb 0e19 ab3e
00000080: 88d7 24bd eb51 d4be 2acc e2be 5e81 9ebe
00000090: ad84 b23e 44d8 003e 928e bbbd 6691 433e
000000a0: c166 9c3e e9a4 8f3e ef06 d33e 61f1 113c
000000b0: 0f16 083e 0226 133e 599d b1bd 5c05 723e
000000c0: fc70 f9be 6a32 c13e d3c0 a73e 5f6b 973e
000000d0: 8b72 99bd e217 7a3d b087 7d3e 2dc2 d23b
000000e0: 595a dd3d 2966 a33d d3eb 743f 99ac 973d
000000f0: 3a2b 4abd 06e5 6b3e 3122 79bf 18a2 12be
00000100: 4bf3 c03e 0c87 7b3e eb37 88bd fbc3 413e
00000110: bb95 863e 2c37 a63d 8232 a83e 6e2d 173e
00000120: 6989 9b3e b34d 3c3e d93f 60be 1bf1 a53e
00000130: 6690 0c3f 2fa0 673e 50a8 8abe 8a8f ee3d
00000140: 3b25 f7bc 5ddc 73bd d364 5b3d ddd6 353c
00000150: a88d 0ebb d3b5 0b3f e44b 1b3e 42e9 e43c
00000160: e381 8e3e 26d3 ed3d 910c 073f ae01 043f
00000170: 9696 ddbe 21f2 1abd 25af 48bd fd47 48bf
00000180: 501e c9be bb4d a53e abf9 23bf 3659 c83e
00000190: aea8 f83e f3df 643e 5ecf 40be ce05 27be
000001a0: 5939 45bd dab7 8fbd 18d0 a2bd 31b8 95be
000001b0: d79a 3dbf 410e 87be 54da 44be 095b d2bc
000001c0: f0b0 d03e 7940 563e 341a 853e efff 5c3e
000001d0: 68c5 06bf 3df3 64bc 1b9c 413e 6f74 b63d
000001e0: 1683 dbbd 71e9 2bbe 694a bd3d 0a94 34ba
000001f0: 0949 a2bc 3aec a03e 8da7 9fbe 2faf 013f
00000200: a695 e8be fe75 09bf c93c 99be 8ec6 98be
00000210: 0610 303f 5566 8c3d b50c 64be 81b1 d1bd
00000220: 2e09 443e 2235 08bf 62df 01bf b58a c33a
00000230: 08e7 bebe 79ec 053f bf37 903d 39e1 a6be
00000240: b27d cdbd 4950 e9bd 9761 8b3e 3d67 0fbf
00000250: 6199 57be 537d 79be 8de2 c9be 4789 c7be
00000260: b27a eabe 76b8 13be 4bc7 103f 3f74 f53d
00000270: f230 56bd 29c4 c1bd c218 813e f6bc e63e
00000280: 2f8a e43e 1e77 c2be 627e 1dbf 0489 07bf
00000290: 4a75 5d3e 077a e63c 0b11 61be 1430 483e
000002a0: 82d1 9e3e ee2a 633e 4669 b73d e291 733d
000002b0: 3137 3d3e 76f4 e8bb 3e36 7cbd a232 aabe
000002c0: 21b5 5abe 1107 8f3e ac39 9d3e 4f90 b13e
000002d0: f767 a33e f28e ca3e eb13 733d e5aa 8d3d
000002e0: 3f7a 07bd ffa1 b33c e749 193f 2a66 17be
000002f0: d7fc 77be 4668 613e d420 2f3e 0212 6ebe
00000300: 6b42 95bc 929e 513d 3bf3 adbe e2e7 1bbe
00000310: 32f9 c53c 8f1e d63d 5fc8 b83e 9489 9bbe
00000320: 8532 12be 494d 113e 89b5 6abd 809d b13e
00000330: 12d7 1f3f 03f7 353e 0fa9 10bf 0470 9f3e
00000340: 9ee5 c63d 1ffa 11be d5d2 0f3f 71d7 a3be
00000350: 6bec 1abf 9f79 0b3f 225d 933e 5408 6b3d
00000360: 2d67 ba3e 0863 4c3e 8cce fe3e 8940 ff3e
00000370: 5329 06bf 598b 52be b021 f5be a597 b63e
00000380: c620 353e b634 a03e 891c 21bf d957 a43e
00000390: 5f1d 163f eec0 973e 1028 78be 1881 a6be
000003a0: 9a62 f93e 25bd 9dbe 0673 d2bd 1808 c0be
000003b0: 7afe 59bf 5e6d 23bf 8b68 693d 4859 f8bd
000003c0: 6a4e df3e 5a76 a13e 9ad6 1b3e 431d 00bc
000003d0: 95a9 cbbe 4e4e bdbc 2011 69be 3f83 343d
000003e0: 67c1 d0bd 026b e1be 34d1 fdbc b1d3 403e
000003f0: d2d5 a33e 5f2e 983e 837b 723c 3588 b83e

fc.bias f4 [62]
-0.039119132 -0.03821739 -0.14547874 -0.44131565 -0.32382438 0.27442092 -0.7949644 -0.16650313
0.622898 -0.3465745 -0.19360553 0.25379968 0.025793731 0.08396993 -0.029043768 -0.04589795
0.22298571 -0.1739881 -0.33566207 0.050575055 -0.5188741 -0.29155412 0.13759328 -0.1810602
0.11749599 0.083139434 -0.13039193 -0.19275129 0.123353355 0.104265265 0.04370058 -0.20905118
-0.21104707 -0.06987934 0.019768141 -0.49344137 -0.035311826 0.13906172 0.05350939 -0.18579192
0.18829696 0.045507286 -0.21349655 0.19563547 0.13480377 -0.672502 -0.0030996676 0.3712662
-0.048801273 0.08790039 0.018470434 -0.267442 -0.8160429 0.31030098 0.16212587 -0.22274163
-0.07830025 -0.32151645 -0.25442776 -0.831891 0.017752599 -0.5228097
00000000: 623b 20bd d789 1cbd 61f8 14be 20f4 e1be
00000010: 4fcc a5be e680 8c3e c982 4bbf cc7f 2abe
00000020: 3e76 1f3f 3672 b1be 8740 46be 08f2 813e
00000030: 604d d33c 6df8 ab3d 32ed edbc 7dff 3bbd
00000040: 5e56 643e f029 32be e6db abbe ca27 4f3d
00000050: efd4 04bf 9546 95be 41e5 0c3e d867 39be
00000060: bda1 f03d 0245 aa3d 7685 05be 9860 45be
00000070: afa0 fc3d 0789 d53d 61ff 323d 8311 56be
00000080: b91c 58be e61c 8fbd ccf0 a13c 59a4 fcbe
00000090: 22a3 10bd 3266 0e3e aa2c 5b3d 3d40 3ebe
000000a0: ebd0 403e d965 3a3d d79e 5abe aa54 483e
000000b0: 000a 0a3e 1729 2cbf cb23 4bbb 9a16 be3e
000000c0: d8e3 47bd 1f05 b43d 4f4f 973c 28ee 88be
000000d0: 30e8 50bf c5df 9e3e 5304 263e 6216 64be
000000e0: e25b a0bd ce9d a4be 5b44 82be cff6 54bf
000000f0: e66d 913c dbd6 05bf
