Models/best_rnn_model_drop.pth (torch, 396895 bytes, 14 tensors)

rnn.weight_ih_l0 f4 [128, 62]
0.049325444 -0.30302104 -0.721397 -0.39119342 0.2063037 -0.7214263 -1.5011922 -0.2560715
-0.6297991 -1.4901315 -0.41864884 0.5043389 1.9437956 0.15373449 0.36429882 0.050547794
0.43212318 0.10966392 -0.24689811 -0.19280168 0.32684115 0.28384882 0.89401305 0.52831215
0.176829 0.26953635 0.5842801 0.29181266 -0.38653865 0.028578471 0.5620734 -0.218402
0.4437723 -0.36522633 0.38597327 0.024397334 0.07773453 0.75625736 0.3665116 -0.11111566
-0.46990222 0.13793617 -0.21459176 -0.116503 -0.120900206 0.81697387 -0.07482181 0.14801466
0.111005604 0.04187024 -0.015727524 0.07509588 2.05766 -0.06606359 0.08095515 0.24098337
-0.41856477 0.4756311 -0.44701475 -0.43219846 -0.24847816 0.27014357 0.3147443 0.09456115
0.62902665 0.503672 1.8999827 0.53032017 0.43278313 2.049243 0.5439902 0.42349783
1.2199503 -0.14237739 0.41262147 -0.13841517 -0.070289366 0.08032958 -0.66045547 0.017513933
-0.1191129 0.13794498 -0.5702091 0.023185888 -0.17504823 -0.2547794 0.22156695 -0.2919772
0.16913873 0.2338075 -0.052939113 0.6920679 0.8149657 0.13757353 0.64798516 0.60592705
-0.03251315 -0.20491025 -0.46895912 0.4259082 0.008887401 -0.0240925 -0.124519594 -0.26196474
-0.18202144 -0.16079432 -0.14762886 0.024672428 -0.00882709 -0.25057435 -0.9377404 0.052526437
-0.75474304 -0.11371786 -0.01802609 -0.08580431 0.44470987 0.46832633 -0.063529655 -0.34862226
0.3663486 -0.08691445 0.011747106 0.34941587 -0.16969776 -0.16217478 -0.443984 -1.0356445
-0.39116737 0.19125712 -0.30795833 -0.7440641 0.2943136 0.39722186 -0.6015979 -0.046589594
0.17244554 -0.6634041 0.23629834 -0.3705923 0.17957301 0.031292778 -0.46955875 -0.32005173
1.0617987 -0.1122147 -0.2546303 -0.13626218 -0.29324508 0.12736261 0.13198318 -0.083465636
-1.0045532 -0.52362955 -0.057556517 -0.1335367 -0.3957175 -0.2944193 0.1180893 -0.9285403
0.511185 0.75167435 -0.20828532 0.48566747 0.12074702 0.52406484 0.19223101 -0.06182127
0.07719139 0.7139696 -0.06455499 -0.008569524 0.22395857 -0.13732243 0.7749664 0.5113697
1.5657285 0.016654028 -0.050201066 0.12033697 0.014263269 0.09814399 -0.114573196 -0.32515693
0.2815532 -0.48889145 -0.4853491 -0.6315227 0.39046764 -1.325371 -0.30071983 0.79341316
-0.2080302 2.8668356 0.2249132 0.20285049 0.6609167 -0.17488247 -0.13128823 -0.046445653
0.46167278 -0.2704735 0.18616912 0.1630981 0.46658587 -0.13098456 -0.025742525 -0.11848547
-0.07484039 0.06677612 0.040240243 -0.026555853 0.116467446 -0.11367566 0.023266021 -0.034065712
0.4571575 0.32660377 0.32758117 0.18283781 -0.08922565 -0.1892333 -0.32338235 0.038126715
0.15429184 0.43288785 -0.061942775 0.119200855 0.062309373 1.3914431 -1.1000235 -0.11648655
0.51536775 -0.009453552 0.25551218 -0.00024023133 -0.10718146 0.098351225 -0.16808204 0.038427327
0.13195011 1.0481974 -0.27794904 0.90597165 0.13891879 0.047137704 0.8037052 1.1296141
-0.10589049 -0.71099293 0.65064865 2.044836 0.40081742 2.0178583 -0.017870381 0.8588996
00000000: 7a09 4a3d 9325 9bbe 79ad 38bf 814a c8be
00000010: 4741 533e 65af 38bf 1127 c0bf ce1b 83be
00000020: 843a 21bf a1bc bebf 2459 d6be 5b1c 013f
00000030: 4bce f83f 936c 1d3e 6085 ba3e 340b 4f3d
00000040: 403f dd3e 7a97 e03d dcd2 7cbe ce6d 45be
00000050: b957 a73e a254 913e 0ade 643f 773f 073f
00000060: a912 353e ab00 8a3e 6193 153f 7868 953e
00000070: 65e8 c5be 661d ea3c 0be4 0f3f c6a4 5fbe
00000080: 1f36 e33e f2fe babe 4a9e c53e ebdc c73c
00000090: 4833 9f3d 159a 413f 69a7 bb3e 9b90 e3bd
000000a0: 0697 f0be 243f 0d3e f1bd 5bbe 2099 eebd
000000b0: 879a f7bd 3325 513f 2d3c 99bd 2891 173e
000000c0: e856 e33d 2180 2b3d 02d7 80bc decb 993d
000000d0: b4b0 0340 594c 87bd d0cb a53d 58c4 763e
000000e0: 1f4e d6be eb85 f33e 1edf e4be 1e49 ddbe
000000f0: 0f71 7ebe 4250 8a3e 2a26 a13e 47a9 c13d
00000100: e407 213f a6f0 003f a232 f33f 10c3 073f
00000110: c095 dd3e cc26 0340 f142 0b3f b5d4 d83e
00000120: 5527 9c3f 61cb 11be 1f43 d33e b5bc 0dbe
00000130: dff3 8fbd d683 a43d 9c13 29bf 6179 8f3c
00000140: 77f1 f3bd 7341 0d3e 39f9 11bf 55f0 bd3c
00000150: d83f 33be 7272 82be 72e2 623e 097e 95be
00000160: b432 2d3e 3c6b 6f3e afd6 58bd 5d2b 313f
00000170: 98a1 503f 13e0 0c3e 5be2 253f 091e 1b3f
00000180: 822c 05bd fed3 51be 691b f0be a410 da3e
00000190: 769c 113c a25d c5bc 2104 ffbd 3e20 86be
000001a0: d463 3abe 44a7 24be 052c 17be d51d ca3c
000001b0: 809f 10bc 484b 80be c10f 70bf f625 573d
000001c0: d736 41bf e9e4 e8bd 73ab 93bc 2cba afbd
000001d0: 03b1 e33e 78c8 ef3e d61b 82bd 9e7e b2be
000001e0: 0b92 bb3e 3400 b2bd ef76 403c a3e6 b23e
000001f0: 40c5 2dbe 2511 26be df51 e3be 0090 84bf
00000200: 1747 c8be e8d8 433e b7ac 9dbe fc7a 3ebf
00000210: 46b0 963e aa60 cb3e 5202 1abf bbd4 3ebd
00000220: 9095 303e dad4 29bf 31f8 713e 46be bdbe
00000230: fde1 373e db2c 003d 016a f0be d2dd a3be
00000240: 05e9 873f d2d0 e5bd e75e 82be 5088 0bbe
00000250: 3824 96be 586b 023e 9926 073e 08f0 aabd
00000260: 3395 80bf 960c 06bf 62c0 6bbd d8bd 08be
00000270: 7c9b cabe 20be 96be ced8 f13d d1b4 6dbf
00000280: 05dd 023f bb6d 403f bf48 55be 68a9 f83e
00000290: 374a f73d 1d29 063f 35d8 443e 4d38 7dbd
000002a0: 8516 9e3d b6c6 363f 6835 84bd 3067 0cbc
000002b0: 6555 653e 409e 0cbe 3364 463f 20e9 023f
000002c0: cb69 c83f 076e 883c a29f 4dbd 3b73 f63d
000002d0: 7cb0 693c b7ff c83d 5aa5 eabd f87a a6be
000002e0: be27 903e fb4f fabe ad7f f8be 79ab 21bf
000002f0: 60eb c73e c2a5 a9bf f3f7 99be 201d 4b3f
00000300: de05 55be 3c7a 3740 a54f 663e 0ab8 4f3e
00000310: d631 293f 6414 33be 6c70 06be cc3d 3ebd
00000320: 6060 ec3e 817b 8abe 1ea3 3e3e 3003 273e
00000330: 58e4 ee3e d120 06be fde1 d2bc 83a8 f2bd
00000340: eb45 99bd ebc1 883d f4d2 243d a98b d9bc
00000350: 7c86 ee3d c9ce e8bd 6298 be3c 7d88 0bbd
00000360: 8c10 ea3e 9c38 a73e b8b8 a73e d639 3b3e
00000370: f0bb b6bd 60c6 41be 5f92 a5be c22a 1c3d
00000380: aefe 1d3e 7aa3 dd3e b5b7 7dbd 941f f43d
00000390: 1d38 7f3d cf1a b23f 92cd 8cbf 8090 eebd
000003a0: 24ef 033f 12e3 1abc 7ed2 823e 9be6 7bb9
000003b0: f481 dbbd 5e6c c93d b31d 2cbe f965 1d3d
000003c0: ee1d 073e 552b 863f 564f 8ebe c2ed 673f
000003d0: ba40 0e3e 7713 413d a0bf 4d3f 3297 903f
000003e0: 1ddd d8bd a203 36bf e990 263f 98de 0240
000003f0: f137 cd3e 9724 0140 e864 92bc d8e0 5b3f

rnn.weight_hh_l0 f4 [128, 128]
0.023107624 0.030153265 0.01910548 0.04694912 0.019829078 -0.024314042 -0.028316367 0.059315097
0.02794673 -0.00987032 -0.035120994 -0.03473231 -0.0698198 0.028176952 -0.016882915 0.025029315
0.0062332856 0.060349137 0.0034557849 -0.03962637 0.053450324 -0.02322404 -0.013385823 0.016235843
0.009538191 -0.003830513 0.014709743 -0.03218192 -0.008270351 0.0052634883 -0.065351084 0.032219745
-0.008714855 -0.016100155 0.0063810996 -0.010753739 -0.0025672945 0.023528906 -0.03023612 -0.04181034
0.03104513 0.0040643523 -0.005274649 0.037748646 0.014806476 -0.011570804 0.020187465 0.07432994
-0.0022000168 0.040663417 0.020333689 -0.004783258 0.019966489 0.0053278264 0.00120679 0.0418016
0.03498129 0.113201275 -0.0045988974 0.011878259 0.027645335 -0.030252088 -0.034457296 0.033590276
0.04211445 0.0015945402 -0.06540824 -0.026332686 0.026355488 -0.017894752 0.038879666 0.0067362427
-0.029984843 0.009225801 -0.015895277 -0.028982922 0.04807988 0.0074263266 0.0127518885 0.04691638
-0.024452843 0.030115532 -0.040011648 0.017252667 0.029829502 0.0046008592 -0.014178022 -0.014718872
-0.056094736 0.024678366 0.008481353 -0.027559694 -0.021536047 0.0053490563 -0.025859246 -0.013522051
-0.03176477 -0.00026078694 0.061290532 0.02750412 -0.009747552 0.0015014105 -0.021562377 0.027860975
0.030316066 0.023672117 0.020917598 -0.013724637 -0.067232564 0.016504742 0.021830266 -0.005334966
-0.06299104 0.023086203 -0.07223483 0.035010874 0.02641488 -0.028838856 0.028342986 -0.027170565
0.026595 0.0077569955 -0.07114035 -0.030951383 -0.030560067 -0.012666743 0.038283966 0.029001312
0.004362915 -0.014010283 0.015960587 -0.006282054 -0.014945768 0.0066398554 0.00993381 0.007250169
-0.012893769 0.004949994 0.0008384697 -0.04284962 -0.06187545 -0.005612367 -0.024370586 -0.034706317
-0.028353624 -0.00023110502 0.0074387267 -0.02054675 0.0362489 -0.029759442 -0.0033298796 0.006268179
0.023564352 -0.09849249 -0.049937796 0.054314684 -0.009897664 -0.010872864 0.041500837 -0.050269682
-0.022430146 0.028303636 0.042530745 -0.049547978 0.028994923 -0.0028979166 0.038408976 -0.024758132
0.027110392 0.039998908 -0.02397867 -0.025465686 0.04322393 0.016390035 -0.017564302 -0.024151934
-0.02164361 -0.033009384 -0.008929539 -0.009462126 -0.05083609 -0.009326351 0.022705315 -0.07666047
0.042381994 0.02847868 0.010766141 0.045791015 0.010013997 -0.030810084 0.032808106 -0.041866887
-0.02373995 0.003736157 0.0015581407 -0.041955277 -0.011598871 -0.0016256223 0.012727586 0.021143747
-0.025775881 0.011326855 0.0041109254 0.046779238 0.024354741 0.063361995 -0.0055687036 0.008892554
-0.024721898 0.062486008 -0.05304106 -0.0034827876 -0.0076098326 -0.009463113 -0.032807328 0.035452895
-0.03314856 0.03597884 0.02622621 -0.06894834 -0.027453067 -0.0057098665 -0.020385005 0.03251827
-0.005506195 -0.0044576805 0.08668867 0.019966679 0.023384726 0.011252576 -0.07258491 0.023490518
0.024779862 -0.027942697 0.028852813 -0.03294926 0.031864654 -0.0084422305 0.0012957862 0.008366312
0.046161983 -0.026809866 -0.018049916 -0.051590666 0.020710388 -0.012838062 0.048690975 -0.033061255
0.041553013 0.026836107 0.009049264 0.02090344 -0.012213671 0.030205863 -0.021504503 -0.03818013
00000000: 334c bd3c fb03 f73c 1883 9c3c b84d 403d
00000010: 9770 a23c 3e2e c7bc baf7 e7bc 63f4 723d
00000020: 8af0 e43c 1fb7 21bc 08db 0fbd 7743 0ebd
00000030: affd 8ebd 5ad3 e63c 0a4e 8abc 470a cd3c
00000040: 9740 cc3b a830 773d 737a 623b 434f 22bd
00000050: baee 5a3d 5840 bebc 3650 5bbc 0801 853c
00000060: 1346 1c3c 5809 7bbb 2201 713c 30d1 03bd
00000070: 5e80 07bc 5779 ac3b cad6 85bd daf8 033d
00000080: c0c8 0ebc 79e4 83bc 8b18 d13b 7330 30bc
00000090: 0e40 28bb b1bf c03c bdb1 f7bc 5241 2bbd
000000a0: 5b52 fe3c 422e 853b f6d6 acbb 539e 1a3d
000000b0: dd96 723c 7893 3dbc 2f60 a53c 4c3a 983d
000000c0: 282e 10bb af8e 263d d692 a63c e0bc 9cbb
000000d0: c390 a33c 0c95 ae3b 272d 9e3a 2838 2b3d
000000e0: 8b48 0f3d 12d6 e73d 59b2 96bb 079d 423c
000000f0: 7878 e23c 3ad3 f7bc 1823 0dbd f595 093d
00000100: 3480 2c3d e4ff d03a c1f4 85bd a5b7 d7bc
00000110: 77e7 d73c 0498 92bc 4940 1f3d b3bb dc3b
00000120: c6a2 f5bc d027 173c d036 82bc 986d edbc
00000130: 69ef 443d 8b58 f33b 4ced 503c 642b 403d
00000140: 5451 c8bc d9b4 f63c 41e3 23bd 7755 8d3c
00000150: 005d f43c cec2 963b ef4a 68bc 6c27 71bc
00000160: 98c3 65bd 492a ca3c 5ff5 0a3c dec4 e1bc
00000170: 5d6c b0bc 2347 af3b c5d6 d3bc 988b 5dbc
00000180: c71b 02bd 3bba 88b9 c80b 7b3d 5250 e13c
00000190: 32b4 1fbc faca c43a 95a3 b0bc b33c e43c
000001a0: 6659 f83c 07ec c13c 625b ab3c 4ddd 60bc
000001b0: 3ab1 89bd f434 873c 63d5 b23c f0d0 aebb
000001c0: 7201 81bd 471f bd3c dbef 93bd 9067 0f3d
000001d0: 0564 d83c 773f ecbc 8d2f e83c ce94 debc
000001e0: c2dd d93c 652e fe3b 08b2 91bd c18d fdbc
000001f0: 1b59 fabc 2c88 4fbc a6cf 1c3d 2994 ed3c
00000200: c9f6 8e3b 638b 65bc c7bf 823c b0d9 cdbb
00000210: 18df 74bc 2593 d93b 6bc1 223c d392 ed3b
00000220: 6340 53bc 8f33 a23b c0cc 5b3a 1583 2fbd
00000230: 1d71 7dbd f2e7 b7bb d3a4 c7bc 3628 0ebd
00000240: dc45 e8bc c854 72b9 90c0 f33b a851 a8bc
00000250: ba79 143d 13ca f3bc 1c3a 5abb 4c65 cd3b
00000260: 070a c13c 6eb6 c9bd 938b 4cbd 1379 5e3d
00000270: d029 22bc 1924 32bc c8fc 293d 95e7 4dbd
00000280: 6dbf b7bc 07dd e73c b834 2e3d d2f2 4abd
00000290: c386 ed3c f9ea 3dbb bb52 1d3d 91d1 cabc
000002a0: 9d16 de3c e5d5 233d ea6e c4bc 6a9d d0bc
000002b0: 930b 313d 6544 863c 03e3 8fbc 47da c5bc
000002c0: f14d b1bc d934 07bd 334d 12bc 0807 1bbc
000002d0: 8139 50bd 8dcd 18bc 7f00 ba3c 2a00 9dbd
000002e0: be98 2d3d 1f4c e93c 7864 303c 5c8f 3b3d
000002f0: bf11 243c 6e65 fcbc cb61 063d 9d7c 2bbd
00000300: 497a c2bc 50da 743b 873a cc3a 4cd9 2bbd
00000310: 3109 3ebc d512 d5ba 5d87 503c a735 ad3c
00000320: f127 d3bc 4694 393c f1b4 863b 969b 3f3d
00000330: 9883 c73c efc3 813d ac79 b6bb 13b2 113c
00000340: 9485 cabc 54f1 7f3d 9541 59bd 7b3f 64bb
00000350: e75b f9bb 2c0b 1bbc fa60 06bd 0e37 113d
00000360: c9c6 07bd 8c5e 133d 59d8 d63c ca34 8dbd
00000370: 41e5 e0bc d519 bbbb 74fe a6bc e131 053d
00000380: 506d b4bb bc11 92bb d489 b13d 2991 a33c
00000390: 5391 bf3c b95c 383c 66a7 94bd 306f c03c
000003a0: 23ff ca3c 15e8 e4bc bc5c ec3c cef5 06bd
000003b0: 8384 023d 4851 0abc 5fd7 a93a db12 093c
000003c0: 5914 3d3d 5da0 dbbc 6bdd 93bc bc50 53bd
000003d0: d5a8 a93c bc56 52bc 3070 473d 3d6b 07bd
000003e0: 7e33 2a3d 65d7 db3c 5d43 143c b13d ab3c
000003f0: d91b 48bc 4972 f73c 362a b0bc c562 1cbd

rnn.bias_ih_l0 f4 [128]
0.0418169 0.036628556 -0.014556615 0.0048040394 0.026862366 -0.0057063014 0.0064586853 -0.0014184628
0.013904203 0.013073496 0.041875746 0.03974345 0.019979673 -0.03976878 -0.0067211585 0.027874352
-0.010504606 -0.012348042 0.027116535 -0.05676942 -0.026978752 0.028605167 0.025738148 0.04245574
0.03872711 0.01298981 0.023232147 0.02644568 -0.03507278 0.0008741291 -0.04727287 0.0141058555
-0.025418978 0.010482772 0.05135767 -0.0071530594 0.021642622 0.00078227435 -0.0004114957 0.008699279
-0.0152305635 -0.03185084 -0.0056060045 -0.010417873 -0.01431423 0.008951805 0.0051299203 -0.0025309687
-0.005469431 0.013782112 -0.041776184 -0.021356737 0.021586718 -0.013379432 -0.022771778 -0.010757245
-0.029983228 -0.0466933 0.03762371 -0.05014332 -0.04575795 -0.016467402 -0.012175777 0.036084976
0.016128695 -0.0018718339 -0.025195945 -0.021123221 -0.049027566 -0.03167199 -0.02673203 0.012360294
0.023218447 -0.024411475 0.075541966 -0.011834466 -0.0036765665 0.0062164874 -0.006106803 -0.007421681
0.008455948 0.03390657 0.0036718668 0.04118851 -0.037704278 -0.0019005678 -0.016374592 0.020532547
0.034119528 -0.012541472 0.032959618 0.01852704 0.018492816 0.05649776 -0.031584077 0.018436778
0.061433986 0.024988262 0.040732205 0.04286754 -0.030126952 -0.029778432 -0.012470978 0.024894789
0.007609349 0.01600072 0.009570736 -0.06583207 -0.013281786 0.02580204 -0.024029959 -0.03904308
-0.035900783 -0.02713862 0.02004498 0.05698424 0.026476176 -0.038039304 0.009313042 0.028305126
0.048463292 -0.014114815 0.02335862 0.007058632 0.020551538 0.0457055 0.0075822487 -0.01726013
00000000: 3348 2b3d d307 163d de7e 6ebc 346b 9d3b
00000010: 770e dc3c edfb babb 61a3 d33b b7eb b9ba
00000020: 74ce 633c 3732 563c e785 2b3d 07ca 223d
00000030: 69ac a33c 97e4 22bd 2a3d dcbb c158 e43c
00000040: 831b 2cbc 714f 4abc 7f23 de3c 0d87 68bd
00000050: 8b02 ddbc 6255 ea3c cfd8 d23c 12e6 2d3d
00000060: 51a0 1e3d 36d3 543c 5851 be3c 9ca4 d83c
00000070: 7aa8 0fbd d025 653a 32a1 41bd 3f1c 673c
00000080: 763b d0bc efbf 2b3c 6c5c 523d 3664 eabb
00000090: de4b b13c 8b11 4d3a 05be d7b9 6c87 0e3c
000000a0: 9d89 79bc 0776 02bd 93b2 b7bb baaf 2abc
000000b0: 3b86 6abc 97aa 123c e418 a83b 9cde 25bb
000000c0: ea38 b3bb 5ece 613c 811d 2bbd 53f4 aebc
000000d0: a1d6 b03c 6835 5bbc e18b babc 283f 30bc
000000e0: 639f f5bc 7941 3fbd 521b 1a3d 1563 4dbd
000000f0: b06c 3bbd a5e6 86bc e97c 47bc d7cd 133d
00000100: 5320 843c 5358 f5ba ba67 cebc 9b0a adbc
00000110: 21d1 48bd 7dba 01bd 21fd dabc d582 4a3c
00000120: 9d34 be3c 93fa c7bc bfb5 9a3d 59e5 41bc
00000130: 8df2 70bb adb3 cb3b 941b c8bb 9331 f3bb
00000140: d18a 0a3c 9ee1 0a3d b4a3 703b 48b5 283d
00000150: cd6f 1abd 791c f9ba 0224 86bc df33 a83c
00000160: ebc0 0b3d bf7a 4dbc aa00 073d 05c6 973c
00000170: 3f7e 973c 326a 673d 4e5e 01bd ba08 973c
00000180: 34a2 7b3d 2fb4 cc3c d0d6 263d e095 2f3d
00000190: cccc f6bc e6f1 f3bc 1353 4cbc 28f0 cb3c
000001a0: d957 f93b f113 833c 94ce 1c3c f7d2 86bd
000001b0: d99b 59bc cd5e d33c 7ada c4bc a3eb 1fbd
000001c0: b30c 13bd d051 debc 5f35 a43c 4e68 693d
000001d0: 91e4 d83c 1acf 1bbd bb95 183c 27e0 e73c
000001e0: 7281 463d d341 67bc 945a bf3c 194c e73b
000001f0: b35b a83c b135 3b3d 8374 f83b 1e65 8dbc

rnn.bias_hh_l0 f4 [128]
-0.0011434867 0.045138936 -0.020727161 0.018987983 0.0065937825 -0.004762529 0.020491526 -0.0054062763
-0.016993884 0.0030711342 -0.008611899 0.047148272 0.047635097 -0.012289808 -0.041610375 -0.0068091364
-0.060287073 0.051733132 -0.0049656522 -0.022848671 -0.044770233 0.034013517 -0.00041744733 -0.028512832
0.029691096 -0.005453368 0.0050104014 -0.006422283 -0.012635575 -0.02750712 -0.024381619 0.005493155
-0.0067187184 0.009353299 -0.022177696 -0.008817735 -0.0094313165 0.0025667788 -0.014468676 -0.046579666
0.009335421 -0.038123235 0.015098549 -0.008183622 -0.03886295 -0.0021464897 0.014267285 0.046690315
-0.02447181 0.02554445 0.003573574 0.025507577 0.007569602 -0.023603737 -0.032170273 -0.00727133
0.030195573 -0.013818823 0.011273771 0.012674266 -0.012612609 -0.04961769 -0.040003214 0.007985903
-0.029931033 0.0093238475 0.029343013 -0.014084873 0.012888613 0.010748391 0.020413896 0.052932553
0.021555237 -0.009070714 0.0042623486 0.01285653 -0.018908452 -0.05563431 -0.026152233 -0.00480831
0.027549183 0.01871184 0.027951812 -0.009794891 -0.018622989 -0.03438182 0.024274174 0.012737271
0.05065907 0.05599113 0.030671783 -0.0065312353 0.009337311 -0.0048527247 0.004458303 0.048603434
-0.00028128337 0.02756762 -0.023192788 0.00048226782 -0.00042662345 0.0196866 0.0012893645 0.03335379
0.024958566 0.000108736676 0.018902572 -0.026810523 -0.014312373 0.009276428 -0.022733152 0.019941544
-0.027920723 -0.03558659 -0.015144771 0.047544707 0.01865617 0.012259345 -0.004525411 -0.008858515
0.0021433176 0.0054317852 0.030763328 0.037748083 0.026306171 0.025018847 0.0057068984 0.016400427
00000000: 0ce1 95ba 9be3 383d 02cc a9bc b08c 9b3c
00000010: a810 d83b fd0e 9cbb d8dd a73c 2227 b1bb
00000020: c236 8bbc 1545 493b ec18 0dbc 8c1e 413d
00000030: 051d 433d 315b 49bc a46f 2abd 2d1f dfbb
00000040: 94ef 76bd 1fe6 533d e9b6 a2bb 232d bbbc
00000050: fe60 37bd c251 0b3d d5dc dab9 be93 e9bc
00000060: be3a f33c 2bb2 b2bb 4b2e a43b 0472 d2bb
00000070: 7105 4fbc 9d56 e1bc f6bb c7bc edff b33b
00000080: b228 dcbb 943e 193c 00ae b5bc 4378 10bc
00000090: cf85 1abc 6737 283b 070e 6dbc 52ca 3ebd
000000a0: 98f3 183c 1c27 1cbd e85f 773c 9914 06bc
000000b0: c22e 1fbd 1fac 0cbb 55c1 693c 583e 3f3d
000000c0: 1b79 c8bc 9842 d13c 9f32 6a3b 44f5 d03c
000000d0: 6d0a f83b a05c c1bc fac4 03bd 5644 eebb
000000e0: b55c f73c 5868 62bc 9fb5 383c b9a7 4f3c
000000f0: 1ea5 4ebc eb3b 4bbd 69da 23bd 4ed7 023c
00000100: ed31 f5bc 0dc3 183c c260 f03c 3dc4 66bc
00000110: c32a 533c 051a 303c 0b3b a73c cecf 583d
00000120: 9c94 b03c 559d 14bc 2cab 8b3b 32a4 523c
00000130: e6e5 9abc cde0 63bd 353d d6bc 078f 9dbb
00000140: d3ae e13c 9349 993c 33fb e43c c07a 20bc
00000150: 3d8f 98bc f4d3 0cbd a2da c63c fdaf 503c
00000160: e37f 4f3d f556 653d 6443 fb3c f903 d6bb
00000170: 85fb 183c 9b03 9fbb f516 923b 6514 473d
00000180: 3779 93b9 7dd5 e13c cdfe bdbc e4d8 fc39
00000190: 6eac dfb9 cb45 a13c e5ff a83a fc9d 083d
000001a0: e875 cc3c 8f09 e438 91d9 9a3c bea1 dbbc
000001b0: 717e 6abc 29fc 173c e03a babc 735c a33c
000001c0: 00ba e4bc 3fc3 11bd c621 78bc 3dbe 423d
000001d0: d3d4 983c 6bdb 483c e649 94bb 4e23 11bc
000001e0: e776 0c3b 1efd b13b 6003 fc3c bc9d 1a3d
000001f0: 0a80 d73c 53f4 cc3c ef00 bb3b 305a 863c

rnn.weight_ih_l1 f4 [128, 128]
0.0060678963 -0.14690539 0.2304236 0.16384988 0.15425932 -1.482195 0.009714583 -0.2591187
-1.710682 -0.040264253 0.029801797 -0.2628651 -0.032363955 -0.20167404 -0.13377772 -0.079722695
0.0003937672 -0.118060745 -0.028158888 0.08873818 0.03280625 0.006841308 -0.046503983 -0.13824
0.24924314 -0.017375736 -0.04018664 -0.19948089 -0.1418767 -0.062956594 0.036922988 1.1776239
-0.12984404 -0.0043545696 0.0611612 0.31692064 -0.3162398 -0.08166935 0.12803353 -0.133268
0.09927755 -0.07203287 0.23003249 0.018579762 -0.18033162 -0.061659176 0.10467725 0.020917691
0.13136016 0.21165843 0.061786283 -0.016391836 0.12021376 -0.15029784 0.025721844 -0.17309895
0.003790173 -0.14325728 0.13870347 0.068884365 0.12614858 -0.18370134 -0.063718475 -0.16689746
-0.12418956 -0.073475145 -0.3031934 0.22788228 -0.085628964 -0.0608861 0.031043263 0.38535106
0.15339135 -0.0705785 -0.0027745299 -0.2672709 -0.1328061 -0.062634096 0.07633748 -0.1930674
-0.15555412 -0.03870171 0.024849555 0.051857363 0.038564354 0.15699564 -1.1654521 0.19484971
0.0058357003 0.12220037 -0.0012190118 -0.010051454 -0.12170642 -0.041594412 0.13277555 0.083928935
0.20151956 -0.21381675 0.007009673 0.13258143 0.38006106 -0.0863637 0.17163074 0.0520801
0.009408184 -0.015999548 0.01542476 0.05184927 0.051853642 -0.018634237 -0.28924674 -0.044160705
-0.1090319 0.1565222 -0.025642589 0.08310506 0.0953181 0.07550761 -0.04403803 -0.019469906
-0.1777064 -0.040323112 0.45121133 0.1241416 0.020782791 -0.076634414 -0.07803276 0.62501514
0.034405682 -0.002227635 0.10401525 -0.0034687382 0.8185254 -0.14326522 -0.7907997 -0.010986478
-0.17874138 -0.115560785 0.13006938 0.023537643 -0.016279185 -0.05069366 0.014017005 -0.007638293
-0.11161831 -0.094996184 -0.662671 -0.06767834 0.1261462 0.03682196 -0.7230324 -0.79257137
0.26610965 0.022949474 0.03633048 -0.09006038 -0.099399336 0.05244271 0.17329195 -0.12439675
0.07054305 -0.010000214 -0.071399234 -0.13233772 0.12042744 -0.6625253 0.10623553 0.048774857
0.1984295 -0.023220027 -0.15776715 0.70271784 0.24989372 0.02193396 -0.058069892 0.12976828
-0.016679076 -0.006049021 0.6170565 -0.0006803191 -0.09150686 0.021914527 0.07103135 -0.033967737
0.076220445 0.025254322 0.047688853 0.009855978 0.22511688 0.041335333 0.02409835 -0.19738303
-0.74083114 -0.12493485 -0.07806485 -0.1315499 -0.06510584 -0.05825954 0.1334971 0.29747725
0.14892586 0.05395712 0.10351807 -0.068821914 -0.37743706 0.0052403817 0.10148563 0.030752603
-0.0057885917 0.1810199 0.24516585 -0.10029738 -0.13118434 -0.07498193 0.028208634 0.030391695
0.07109147 0.033196658 -0.018293986 -0.025853902 0.07744255 0.010737921 0.19511662 0.030323915
-0.046690397 0.009322093 0.011894433 -0.06208859 0.018931285 -0.07396035 0.08660837 0.11729727
-0.018210394 0.11564934 0.031314954 -0.0680566 0.08689803 -0.011012205 0.011706677 0.06251205
0.11283824 -0.052381366 0.03385714 -0.06720384 0.18713982 -0.10129927 0.2738447 -0.09792843
-0.11353444 -0.67146564 0.19092585 -0.09390302 -0.10500164 -0.12984186 0.11364959 -0.02120784
00000000: 34d5 c63b 5e6e 16be 2af4 6b3e 43c8 273e
00000010: 28f6 1d3e 91b8 bdbf ea29 1f3c 35ab 84be
00000020: a1f7 dabf 21ec 24bd e622 f43c 4196 86be
00000030: 1190 04bd a483 4ebe 07fd 08be a745 a3bd
00000040: 8a72 ce39 d5c9 f1bd 78ad e6bc 5dbc b53d
00000050: d95f 063d 0d2d e03b f67a 3ebd c98e 0dbe
00000060: 9839 7f3e 8f57 8ebc bf9a 24bd b844 4cbe
00000070: 2048 11be 63ef 80bd 8f3c 173d 61bc 963f
00000080: d6f5 04be c7b0 8ebb 2b84 7a3d 6c43 a23e
00000090: 2fea a1be 4342 a7bd 391b 033e 6877 08be
000000a0: 0752 cb3d f885 93bd a38d 6b3e 9634 983c
000000b0: daa8 38be 558e 7cbd 0761 d63d 945b ab3c
000000c0: 4783 063e fdbc 583e 9d13 7d3d 2c48 86bc
000000d0: a232 f63d ade7 19be 9eb6 d23c da40 31be
000000e0: 8d64 783b 09b2 12be 4808 0e3e 3f13 8d3d
000000f0: 182d 013e 341c 3cbe d57e 82bd 2be7 2abe
00000100: 1957 febd 237a 96bd 2a3c 9bbe f959 693e
00000110: 3d5e afbd b463 79bd 714e fe3c bc4c c53e
00000120: 9f12 1d3e 768b 90bd e3d4 35bb bbd7 88be
00000130: 53fe 07be 4e46 80bd d356 9c3d 76b3 45be
00000140: 9449 1fbe af85 1ebd 4b91 cb3c 6368 543d
00000150: a8f5 1d3d 77c3 203e 892d 95bf af86 473e
00000160: 6739 bf3b 3044 fa3d 40c7 9fba dbae 24bc
00000170: 3741 f9bd e75e 2abd 50f6 073e efe2 ab3d
00000180: 255b 4e3e c7f2 5abe 66b1 e53b 6dc3 073e
00000190: 5d97 c23e 74df b0bd f8bf 2f3e f151 553d
000001a0: c924 1a3c 7c11 83bc 22b8 7c3c e65f 543d
000001b0: 7c64 543d d4a6 98bc 2618 94be dbe1 34bd
000001c0: 1e4c dfbd 5b47 203e 6810 d2bc fc32 aa3d
000001d0: 2336 c33d bca3 9a3d 3961 34bd 5a7f 9fbc
000001e0: abf8 35be d929 25bd 2c05 e73e f43d fe3d
000001f0: ac40 aa3c 81f2 9cbd a4cf 9fbd fe00 203f
00000200: f9ec 0c3d 83fd 11bb f305 d53d c553 63bb
00000210: e18a 513f 1eb4 12be d971 4abf a100 34bc
00000220: fb07 37be 22ab ecbd e830 053e 04d2 c03c
00000230: ed5b 85bc 28a4 4fbd 95a7 653c a54a fabb
00000240: 2498 e4bd 5c8d c2bd cfa4 29bf f19a 8abd
00000250: 782c 013e a0d2 163d a718 39bf f5e5 4abf
00000260: 863f 883e 8900 bc3c 45cf 143d 9471 b8bd
00000270: e191 cbbd 2bce 563d 7273 313e b9c3 febd
00000280: e078 903d f0d7 23bc c339 92bd 8a83 07be
00000290: a9a2 f63d 429b 29bf 0392 d93d 25c8 473d
000002a0: 1a31 4b3e ed37 bebc b68d 21be 51e5 333f
000002b0: 24e4 7f3e d9ae b33c b2da 6dbd fae1 043e
000002c0: 8fa2 88bc de36 c6bb 6af7 1d3f 7157 32ba
000002d0: f367 bbbd 1886 b33c e278 913d c121 0bbd
000002e0: 7719 9c3d 27e2 ce3c 6355 433d f87a 213c
000002f0: 0a85 663e 3d4f 293d e769 c53c c71e 4abe
00000300: 1ca7 3dbf d8dd ffbd 77e0 9fbd 04b5 06be
00000310: 3656 85bd 8ea1 6ebd 77b3 083e f04e 983e
00000320: 0580 183e 2402 5d3d 4801 d43d 81f2 8cbd
00000330: 6e3f c1be 82b7 ab3b b3d7 cf3d e2ec fb3c
00000340: 3aae bdbb 485d 393e c20c 7b3e b668 cdbd
00000350: 3055 06be 2090 99bd cb15 e73c 01f8 f83c
00000360: 6898 913d 38f9 073d 45dd 95bc 90cb d3bc
00000370: 339a 9e3d 1bee 2f3c a7cc 473e dc69 f83c
00000380: 6e3e 3fbd b1bb 183c dee0 423c 9b50 7ebd
00000390: c815 9b3c 8678 97bd bb5f b13d 8d39 f03d
000003a0: f72d 95bc 90d9 ec3d 1c44 003d 4261 8bbd
000003b0: 98f7 b13d 896c 34bc 5dcd 3f3c 5106 803d
000003c0: bc17 e73d d88d 56bd c9ad 0a3d 2ba2 89bd
000003d0: 95a1 3f3e fe75 cfbd 5f35 8c3e b38e c8bd
000003e0: bf84 e8bd 2ce5 2bbf 1182 433e 3a50 c0bd
000003f0: 1a0b d7bd 44f5 04be 1ec1 e83d 10bc adbc

rnn.weight_hh_l1 f4 [128, 128]
-0.06629038 0.11614881 0.23254877 -0.23945813 -0.028550977 -0.15429549 -0.28013515 -0.11992707
-0.2446767 0.023154119 -0.0098150885 0.15671837 -0.2649477 -0.26885542 -0.07031521 -0.1124402
0.0012662918 0.051770825 0.055671565 -0.13134396 0.009277623 0.09923763 -0.052190684 -0.1864646
-0.12982371 -0.1393168 -0.034984946 0.05061002 0.39759478 0.22796139 -0.05291542 -0.12813917
-0.008451143 -0.40787116 0.019751513 0.18069853 -0.07135769 -0.1301802 0.17807096 0.08786317
-0.0006314147 0.3803782 0.048672475 -0.11452467 -0.10701895 0.2230873 0.18254375 0.52976817
-0.17669784 0.24574623 0.120920256 -0.1432058 -0.24154426 0.22397189 0.19088592 -0.13265745
0.24486123 -0.2142302 0.02455533 0.048652217 0.0124166375 0.031211128 -0.3619237 0.0043235985
0.14837463 0.15135416 0.06616035 -0.15250756 -0.20316017 -0.067983635 0.4329517 -0.040773407
-0.09965615 -0.038756125 -0.01859384 0.07638544 -0.07615337 -0.20008805 -0.010134905 -0.14718984
0.24768157 -0.04671428 -0.106490366 0.2746906 0.18003291 0.048184738 -0.23418087 -0.06863959
-0.26151824 0.22266334 -0.03288147 0.2715354 0.13804434 0.15453261 0.104336 0.13327427
-0.48516282 0.1801923 0.48396283 0.04051287 -0.11286173 0.10437226 -0.06980828 0.32841834
0.26532453 -0.11542301 -0.25523153 0.03154647 0.01163823 -0.1586782 0.14678347 -0.040303763
0.06919465 0.085449636 0.14194271 -0.03492513 0.28337651 -0.07324456 -0.16126873 -0.13034427
-0.124827944 0.39324045 -0.27532217 0.05063066 0.23952265 0.080723345 0.19322902 -0.14135908
-0.062141236 -0.28325233 -0.2665714 0.012191074 0.24024911 0.16951928 -0.16995314 0.04978416
-0.22911747 -0.07073595 0.050909016 -0.010886825 0.04169698 -0.13515772 -0.048459537 0.067267284
0.21263516 0.02844215 0.34568787 0.35386738 0.21670017 0.2977883 0.1517422 -0.1457116
0.12907153 0.07839656 0.21304636 0.29739186 0.34280047 -0.24398369 0.11653892 0.29496393
0.19744979 -0.09758702 -0.17445423 -0.25178865 0.13555995 -0.002058334 0.007586462 -0.16782054
-0.026413817 0.054074977 -0.21492794 -0.24519233 0.27003235 0.062205467 -0.2694044 -0.17731349
0.12046813 -0.2363927 -0.3052858 -0.09682128 0.106214136 -0.18606395 -0.11289588 -0.057140414
-0.07312633 -0.01547037 -0.30690157 0.23299196 0.28161907 -0.027756708 -0.16930993 -0.3021491
-0.14092489 0.26797456 -0.16303627 -0.12089514 0.14122774 -0.08088457 -0.18637195 -0.2834387
-0.1739417 0.07470545 0.20959483 0.012639601 0.103738196 0.27670637 0.09106514 0.17451383
0.17266747 -0.07024105 0.1492575 0.080825105 0.0961597 -0.23268726 0.104516916 0.09600009
-0.032139316 -0.14031139 -0.21081597 0.37375662 -0.17038044 0.10069224 -0.08669585 -0.063871585
0.06197573 -0.045804277 -0.2205862 0.094777405 0.24066693 -0.17954211 0.1519105 0.10631867
0.18107574 0.21112737 0.022890752 0.0333436 0.018834412 0.16233237 0.24433002 -0.39113587
-0.1129447 0.17342998 -0.35637522 -0.21650073 0.060691357 0.013862226 0.049447037 0.01540695
-0.09235832 0.673202 0.39308864 -0.1295694 -0.22280528 0.33038682 -0.33918655 0.12684037
00000000: 40c3 87bd 6ddf ed3d 4421 6e3e 8334 75be
00000010: bde3 e9bc a3ff 1dbe e06d 8fbe 539c f5bd
00000020: 878c 7abe b5ad bd3c 77cf 20bc c87a 203e
00000030: 3aa7 87be 6ba7 89be 6c01 90bd 0c47 e6bd
00000040: b4f9 a53a a50d 543d de07 643d 087f 06be
00000050: 2c01 183c 193d cb3d e6c5 55bd 93f0 3ebe
00000060: 82f0 04be 10a9 0ebe 604c 0fbd 744c 4f3d
00000070: 8b91 cb3e b66e 693e d7bd 58bd ea36 03be
00000080: aa76 0abc 7dd4 d0be edcd a13c 0909 393e
00000090: fb23 92bd f54d 05be 3c58 363e 9bf1 b33d
000000a0: 8685 25ba eec0 c23e ca5c 473d e98b eabd
000000b0: c02c dbbd ff70 643e c0ec 3a3e e39e 073f
000000c0: 47f0 34be e6a4 7b3e 0aa5 f73d 8ba4 12be
000000d0: 6157 77be e358 653e 9977 433e 5bd7 07be
000000e0: e7bc 7a3e 295f 5bbe 4228 c93c 8c47 473d
000000f0: 276f 4b3c 7bae ff3c 104e b9be f9ac 8d3b
00000100: 85ef 173e 96fc 1a3e 147f 873d f12a 1cbe
00000110: 3809 50be 013b 8bbd d8ab dd3e 0402 27bd
00000120: 8618 ccbd bebe 1ebd 1c52 98bc f86f 9c3d
00000130: 4cf6 9bbd e2e3 4cbe df0c 26bc efb8 16be
00000140: 3da0 7d3e 7957 3fbd 9f17 dabd 3fa4 8c3e
00000150: 8c5a 383e 5c5d 453d 1ccd 6fbe ea92 8cbd
00000160: b8e5 85be dc01 643e b8ae 06bd b006 8b3e
00000170: 7f5b 0d3e cc3d 1e3e 1dae d53d 0d79 083e
00000180: 4367 f8be 5584 383e fac9 f73e d3f0 253d
00000190: 0d24 e7bd 20c1 d53d a5f7 8ebd 7326 a83e
000001a0: 9ed8 873e e662 ecbd b5ad 82be df36 013d
000001b0: 46ae 3e3c 8a7c 22be 684e 163e 8f15 25bd
000001c0: edb5 8d3d 3800 af3d 6e59 113e a70d 0fbd
000001d0: ba16 913e 3e01 96bd a123 25be f878 05be
000001e0: cba5 ffbd d056 c93e 07f7 8cbe 1862 4f3d
000001f0: 6d45 753e 4852 a53d d4dd 453e 6fc0 10be
00000200: cf87 7ebd 7306 91be 0c7c 88be 12bd 473c
00000210: dd03 763e 7696 2d3e 3208 2ebe 7aea 4b3d
00000220: c59d 6abe 02de 90bd f985 503d a75e 32bc
00000230: 74ca 2a3d c966 0abe 827d 46bd 6ec3 893d
00000240: 08bd 593e 83ff e83c 00fe b03e 1b2e b53e
00000250: a6e6 5d3e b577 983e 4f62 1b3e 6c35 15be
00000260: 542b 043e 608e a03d d328 5a3e bf43 983e
00000270: 8b83 af3e dcd6 79be f5ab ee3d 8305 973e
00000280: 4730 4a3e b4db c7bd 21a4 32be 71ea 80be
00000290: 3ad0 0a3e 1de5 06bb db97 f83b 26d9 2bbe
000002a0: ca61 d8bc b97d 5d3d 1216 5cbe b313 7bbe
000002b0: ae41 8a3e 29cb 7e3d 60ef 89be ab91 35be
000002c0: ffb7 f63d ee10 72be 6c4e 9cbe 3c4a c6bd
000002d0: cc86 d93d 8c87 3ebe f535 e7bd 110c 6abd
000002e0: 42c3 95bd 6f77 7dbc 3422 9dbe 7295 6e3e
000002f0: 6030 903e 0962 e3bc 955f 2dbe 49b3 9abe
00000300: 9d4e 10be f633 893e fbf2 26be df97 f7bd
00000310: 019e 103e cfa6 a5bd 4ad8 3ebe e11e 91be
00000320: c61d 32be 2cff 983d 07a0 563e 5416 4f3c
00000330: b174 d43d 75ac 8d3e 5c80 ba3d c1b3 323e
00000340: becf 303e 8ada 8fbd f5d6 183e a287 a53d
00000350: 60ef c43d 9245 6ebe f70c d63d b29b c43d
00000360: 84a4 03bd caad 0fbe 24e0 57be 075d bf3e
00000370: 3678 2ebe bc37 ce3d 988d b1bd 1bcf 82bd
00000380: 43da 7d3d 449d 3bbd 59e1 61be a81a c23d
00000390: 6471 763e e3d9 37be 6d8e 1b3e 9abd d93d
000003a0: eb6b 393e c631 583e 6385 bb3c 4c93 083d
000003b0: a04a 9a3c 753a 263e a631 7a3e f642 c8be
000003c0: 8d4f e7bd a197 313e d076 b6be 5eb2 5dbe
000003d0: 8097 783d 641e 633c fa88 4a3d 6f6d 7c3c
000003e0: 5c26 bdbd f756 2c3f ea42 c93e d7ad 04be
000003f0: 1127 64be 7628 a93e dca9 adbe 71e2 013e

rnn.bias_ih_l1 f4 [128]
-0.2536781 -0.0107227545 0.1595542 0.29361486 -0.45610982 0.38825217 0.58647484 0.22236684
-0.3304688 -0.31467077 -0.40544432 -0.2538316 0.32838777 -0.60864997 0.07172316 -0.3318514
0.42351142 0.124592274 0.23711327 -0.3917501 -0.14938456 -0.21673454 0.13082284 0.34060538
-0.57294136 0.09255638 -0.0034075705 -0.7118636 -0.087818846 0.58553857 0.23304546 0.11653992
-0.44366395 -0.2791902 0.44925046 -0.010385744 0.42878637 -0.089746594 0.04263988 -0.4031517
0.16134152 0.096263066 0.06716393 -0.32933217 -0.040178712 -0.09020749 -0.65275455 -1.1622777
-0.5252614 -0.22745866 -0.02501115 0.019369442 0.10652587 -0.48484603 0.11960153 0.06931207
0.04555701 -0.0883968 0.034032892 0.06428016 -0.33507332 0.12548254 -0.7595001 -0.36770102
-0.0011629657 -0.3939423 0.091679364 0.5682579 0.016786708 -0.35228243 0.39198926 -0.44247615
0.010600794 0.057380017 -0.08087604 -0.39451432 0.1300384 -0.20850442 0.38418177 -0.08319093
-0.61490035 -0.3046996 0.25499055 0.03743031 -0.10005143 -0.51613826 -0.23556802 -0.29875785
-0.035106864 -0.1839994 -0.0034557283 -0.030435247 -0.22891703 -0.18589161 -0.4377418 0.21509176
0.088900924 -0.45658508 -0.37343517 -0.06786101 0.13440923 -0.7351418 0.14830017 0.4265592
0.47202668 -0.85092866 -0.5531346 -0.09259893 0.26421615 -0.17707086 0.8564666 0.37972477
0.034439296 -0.025452 0.1887176 -0.29303807 0.46105778 0.28750023 0.22315186 0.30047104
0.47002056 0.022648865 -0.4485596 -0.11543642 -0.08105746 -0.08001048 -0.03260295 0.34640384
00000000: 19e2 81be 7eae 2fbc 2d62 233e b054 963e
00000010: 3a87 e9be fdc8 c63e 3723 163f 22b4 633e
00000020: 3533 a9be 871c a1be 6696 cfbe 37f6 81be
00000030: 7122 a83e 7cd0 1bbf 98e3 923d 6de8 a9be
00000040: 7dd6 d83e 3c2a ff3d d2cd 723e 7893 c8be
00000050: 44f8 18be a9ef 5dbe 6cf6 053e d463 ae3e
00000060: 49ac 12bf 338e bd3d 8c51 5fbb b13c 36bf
00000070: 5eda b3bd dbe5 153f 78a3 6e3e 7bac ee3d
00000080: ec27 e3be 05f2 8ebe 2804 e63e f828 2abc
00000090: e389 db3e 10cd b7bd 28a7 2e3d e669 cebe
000000a0: b636 253e 9225 c53d 3e8d 893d 3a9e a8be
000000b0: 6f92 24bd b4be b8bd ec1a 27bf 84c5 94bf
000000c0: 8877 06bf ecea 68be 2fe4 ccbc aaac 9e3c
000000d0: 3c2a da3d bd3d f8be a6f1 f43d 7df3 8d3d
000000e0: fd99 3a3d 6209 b5bd 1366 0b3d 51a5 833d
000000f0: bb8e abbe 7f7e 003e 996e 42bf 4f43 bcbe
00000100: a76e 98ba ceb2 c9be 64c2 bb3d 5a79 113f
00000110: 4784 893c 5d5e b4be d1b2 c83e 3c8c e2be
00000120: f4ae 2d3c 4f07 6b3d 56a2 a5bd c8fd c9be
00000130: c928 053e 2f82 55be 79b3 c43e 0260 aabd
00000140: 1c6a 1dbf 9601 9cbe 1f8e 823e 8650 193d
00000150: c4e7 ccbd a321 04bf be38 71be caf6 98be
00000160: 37cc 0fbd 576a 3cbe 8079 62bb 5753 f9bc
00000170: 3a69 6abe 5f5a 3ebe b11f e0be 0441 5c3e
00000180: b011 b63d 85c5 e9be e532 bfbe b7fa 8abd
00000190: 93a2 093e 4132 3cbf 00dc 173e f865 da3e
000001a0: 7bad f13e 76d6 59bf 3b9a 0dbf 82a4 bdbd
000001b0: 5747 873e 1052 35be 6541 5b3f 496b c23e
000001c0: 3810 0d3d b680 d0bc 303f 413e 1609 96be
000001d0: c40f ec3e 3b33 933e ec81 643e 57d7 993e
000001e0: 89a6 f03e 1d8a b93c 9ba9 e5be ee69 ecbd
000001f0: 7401 a6bd 89dc a3bd ac8a 05bd d85b b13e

rnn.bias_hh_l1 f4 [128]
-0.21199736 0.014597438 0.086291894 0.23767 -0.4666421 0.33053243 0.6243356 0.20138142
-0.25772083 -0.33271837 -0.33875933 -0.23671375 0.3136644 -0.62186474 0.0745592 -0.30853736
0.41849753 0.12204193 0.26893935 -0.3821109 -0.12100106 -0.22494408 0.16087747 0.34421474
-0.6304991 0.080280945 0.05845398 -0.6917074 -0.058153283 0.5606125 0.22756913 0.07714819
-0.41412804 -0.265347 0.45548669 0.004267881 0.41188896 -0.07260736 0.08345161 -0.37368032
0.14021023 0.15212402 0.107200034 -0.28252062 -0.09873909 -0.1201091 -0.69124144 -1.1966801
-0.54353034 -0.25986993 0.027159553 0.03591915 0.07002743 -0.491879 0.18390085 0.009476363
-0.013948999 -0.108798474 -0.02006127 0.12713426 -0.287551 0.15722051 -0.7657717 -0.33729422
0.031589296 -0.41746825 0.09555433 0.55644375 0.0029410606 -0.3513239 0.43616128 -0.47109345
0.063746594 0.04623816 -0.11690918 -0.40100384 0.14130162 -0.2436407 0.38357395 -0.08226351
-0.60768336 -0.29910085 0.27962098 0.080720946 -0.07996918 -0.48779494 -0.26376998 -0.27796
-0.044158068 -0.19299726 0.033056833 -0.038347784 -0.21774836 -0.1844183 -0.36282784 0.24582684
0.0736481 -0.42189077 -0.31458378 -0.109641485 0.08509946 -0.6855047 0.17132743 0.46242413
0.47334614 -0.850613 -0.58425325 -0.1451456 0.2246149 -0.16200604 0.8557765 0.38461924
0.054171525 0.03555655 0.15899019 -0.2758862 0.4363827 0.2806623 0.20022878 0.25901547
0.47643542 -0.022978848 -0.48424122 -0.14779381 -0.14256471 -0.096231304 -0.0033890228 0.35374308
00000000: d615 59be 182a 6f3c ceb9 b03d c45f 733e
00000010: b7eb eebe 8c3b a93e 75d4 1f3f ee36 4e3e
00000020: fcf3 83be 105a aabe dd71 adbe 1765 72be
00000030: 9f98 a03e 8732 1fbf 7eb2 983d 9cf8 9dbe
00000040: 4f45 d63e 1ff1 f93d 6bb2 893e 0aa4 c3be
00000050: 67cf f7bd be57 66be 10bd 243e ea3c b03e
00000060: 6468 21bf 566a a43d 716d 6f3d bc13 31bf
00000070: 2332 6ebd 4d84 0f3f e207 693e dfff 9d3d
00000080: 9708 d4be 90db 87be 8d35 e93e 95d9 8b3b
00000090: 1ce3 d23e 2bb3 94bd ade8 aa3d 0753 bfbe
000000a0: 4593 0f3e 66c6 1b3e b18b db3d 8ba6 90be
000000b0: b837 cabd c3fb f5bd 33f5 30bf d02c 99bf
000000c0: ce24 0bbf ac0d 85be b67d de3c f51f 133d
000000d0: 8b6a 8f3d 90d7 fbbe 8150 3c3e bf42 1b3c
000000e0: 588a 64bc bcd1 debd 8857 a4bc 7c2f 023e
000000f0: e239 93be 6afe 203e 9d09 44bf d4b1 acbe
00000100: c763 013d 66be d5be fdb1 c33d 1973 0e3f
00000110: cfbe 403b bae0 b3be 8850 df3e 2933 f1be
00000120: 938d 823d 3a64 3d3d 156e efbd 6050 cdbe
00000130: 5fb1 103e f37c 79be ce63 c43e c579 a8bd
00000140: 2391 1bbf bf23 99be 7b2a 8f3e 0651 a53d
00000150: e2c6 a3bd 42c0 f9be dc0c 87be c650 8ebe
00000160: 17df 34bd 13a1 45be 9a66 073d 9112 1dbd
00000170: 6df9 5ebe 27d8 3cbe 92c4 b9be 08ba 7b3e
00000180: d1d4 963d 1102 d8be 2011 a1be b78b e0bd
00000190: a048 ae3d 3c7d 2fbf 7570 2f3e dbc2 ec3e
000001a0: 6d5a f23e c6c1 59bf 9f91 15bf 0ca1 14be
000001b0: 7301 663e e9e4 25be 2b14 5b3f d0ec c43e
000001c0: f6e2 5d3d bfa3 113d 53ce 223e f540 8dbe
000001d0: 8e6d df3e f8b2 8f3e c608 4d3e ad9d 843e
000001e0: 58ef f33e 233e bcbc 77ee f7be 4357 17be
000001f0: 7cfc 11be eb14 c5bd 5e1a 5ebb d01d b53e

rnn.weight_ih_l2 f4 [128, 128]
0.037358537 -0.026735462 -0.06503818 0.010154882 -0.017224649 -0.06367702 0.012541777 -0.0011259067
-0.020238822 -0.03882466 -0.014503976 -0.050082136 -0.027212322 -0.023631874 -0.017812457 -0.085615546
0.0014555551 -0.022358969 -0.019695845 -0.046339262 0.0490524 -0.013324181 0.024077488 0.047590226
0.03468605 0.0052514905 -0.040794052 0.032119285 -0.09269267 -0.03701861 0.025486492 0.069094814
-0.0019689673 -0.034606677 -0.034308165 -0.025122259 -0.0056889085 0.01167149 -0.00752552 -0.014955412
0.0068188645 0.03165709 0.054245114 -0.076600485 -0.018120347 -0.0083491225 -0.025612194 0.007706496
-0.014997518 -0.020067178 -0.039917015 0.04510537 -0.012578213 -0.00592278 0.014992295 -0.08639026
0.043143366 -0.0026126525 0.10483906 -0.05033502 -0.006460575 -0.008951999 0.06044898 -0.09879153
-0.06290244 0.01338095 -0.052393727 0.01811563 0.039488997 0.051865306 0.09549683 -0.06742241
0.09634063 -0.057548564 -0.026525693 -0.0018454721 -0.024948949 0.0056554144 0.04037793 0.019185593
-0.0049558254 -0.088183396 -0.023347313 0.087117456 -0.066971585 0.021592129 0.07284763 -0.031941492
-0.01743078 -0.06317989 0.04728426 0.044777315 0.018706061 0.018936953 -0.061110035 0.008349642
-0.012715135 -0.009863881 0.074898735 0.03295838 -0.015021913 -0.006569316 0.01573629 -0.011984036
0.04777089 0.00850693 -0.033515785 0.08029093 -0.003461884 -0.020554315 -0.01992594 0.013073105
-0.032976884 0.029080326 -0.033544336 0.0028241423 0.02368477 -0.023579715 0.064691685 -0.017663509
0.039668713 -0.044233467 -0.047513876 0.0045483187 0.021011846 0.097846344 -0.07341392 -0.0063869827
-0.037777975 0.05979676 0.09752096 -0.046698723 -0.07754419 0.05978656 0.052560315 0.014022601
0.10071007 0.012231098 -0.004332224 0.063894086 0.039240617 -0.009314086 -0.105185054 -0.028982436
0.0987254 -0.027545918 -0.0169831 0.102758735 -0.17039499 0.16649726 -0.03000357 -0.052262478
0.0041523417 0.0897034 0.0026218912 0.04547937 0.013202802 0.043365844 -0.10650051 -0.07227921
-0.06004922 0.007364548 -0.00023487868 -0.03715995 -0.03092094 0.04431851 -0.019199355 0.010206209
-0.15169719 -0.045065664 -0.067582056 0.11655587 0.042607706 0.20107956 -0.04473331 -0.029331148
0.079631746 0.072228655 -0.0634963 -0.10757224 0.033697825 -0.02291893 0.029608477 -0.04076314
0.049727418 -0.28600168 0.0074893814 -0.03586482 -0.04483265 0.081060134 -0.10171815 -0.03688075
-0.0029689565 0.021655567 -0.049549285 0.015341697 0.013158964 -0.046249103 -0.107749835 0.05530393
-0.08520435 -0.0789779 0.039696597 0.04922102 -0.034874905 0.123113275 0.016295964 0.030188877
-0.050676003 -0.038219146 -0.023399746 -0.10432183 -0.058365047 -0.09547472 -0.12423893 0.10359322
0.10038127 0.0031166153 -0.0012165797 0.06645841 0.20902705 -0.1636719 -0.034767058 0.002576851
0.04750857 0.02037666 -0.013854641 -0.12169047 -0.05701998 0.06237713 -0.017465325 0.06070299
0.028236467 -0.02256662 0.07830749 0.042413548 0.03597055 0.08494226 0.051530086 -0.1121757
0.0018772096 -0.06353809 -0.0041271867 0.060901903 -0.019151155 -0.028463596 -0.04506244 0.011014983
0.025829447 0.08294396 -0.070383884 0.22447284 -0.02343795 0.017160898 0.009714878 -0.08297529
00000000: 4405 193d 5404 dbbc bd32 85bd aa60 263c
00000010: b51a 8dbc 1969 82bd 077c 4d3c 2993 93ba
00000020: e3cb a5bc 9b06 1fbd 16a2 6dbc ed22 4dbd
00000030: 60ec debc a297 c1bc 6eeb 91bc 3457 afbd
00000040: 53c8 be3a 282a b7bc 2e59 a1bc 3dce 3dbd
00000050: 2beb 483d aa4d 5abc 273e c53c f8ed 423d
00000060: f612 0e3d b214 ac3b aa17 27bd 838f 033d
00000070: a8d5 bdbd d3a0 17bd 0cc9 d03c 9581 8d3d
00000080: ca09 01bb bbbf 0dbd b886 0cbd 32cd cdbc
00000090: 066a babb c739 3f3c a398 f6bb 8b07 75bc
000000a0: c870 df3b ddaa 013d 2030 5e3d b7e0 9cbd
000000b0: 1f71 94bc c2ca 08bc aad0 d1bc c686 fc3b
000000c0: 26b8 75bc ec63 a4bc 0680 23bd 69c0 383d
000000d0: d914 4ebc e113 c2bb 3ea2 753c 60ed b0bd
000000e0: 19b7 303d 0939 2bbb dcb5 d63d 182c 4ebd
000000f0: 3bb3 d3bb 68ab 12bc 5a99 773d 3753 cabd
00000100: ffd2 80bd c63b 5b3c ce9a 56bd 3b67 943c
00000110: 37bf 213d b770 543d d893 c33d c314 8abd
00000120: 3c4e c53d 0bb8 6bbd 694c d9bc c5e3 f1ba
00000130: bd61 ccbc 0e51 b93b 5463 253d 1b2b 9d3c
00000140: 7a64 a2bb 7f99 b4bd dd42 bfbc a36a b23d
00000150: 6628 89bd fae1 b03c 2331 953d 15d5 02bd
00000160: ffca 8ebc 7564 81bd 24ad 413d 6b68 373d
00000170: 743d 993c ab21 9b3c 844e 7abd f0cc 083c
00000180: 2453 50bc 1e9c 21bc 8264 993d 5eff 063d
00000190: 781e 76bc 6b43 d7bb 64e9 803c b158 44bc
000001a0: 69ab 433d a760 0b3c d947 09bd 926f a43d
000001b0: c7e0 62bb 8661 a8bc ba3b a3bc 9430 563c
000001c0: c512 07bd dd39 ee3c c965 09bd 3f15 393b
000001d0: 9006 c23c 3f2a c1bc 137d 843d 10b3 90bc
000001e0: a97b 223d 272e 35bd e99d 42bd 100a 953b
000001f0: 0921 ac3c aa63 c83d 0a5a 96bd e549 d1bb
00000200: 14bd 1abd 73ed 743d 12b9 c73d 2947 3fbd
00000210: 7dcf 9ebd c0e2 743d 7c49 573d 0dbf 653c
00000220: 1541 ce3d f164 483c 54f5 8dbb e7da 823d
00000230: c5ba 203d 1c9a 18bc 436b d7bd 936c edbc
00000240: 8b30 ca3d faa7 e1bc 2420 8bbc 2c73 d23d
00000250: 067c 2ebe 427e 2a3e 0cca f5bc 2e11 56bd
00000260: 5e10 883b 6bb6 b73d 09d4 2b3b 9348 3a3d
00000270: 9150 583c 62a0 313d f01c dabd 1f07 94bd
00000280: 2cf6 75bd 4e52 f13b c449 76b9 0835 18bd
00000290: e94d fdbc 5387 353d f747 9dbc f137 273c
000002a0: 8256 1bbe c696 38bd 7668 8abd d8b4 ee3d
000002b0: 6b85 2e3d cde7 4d3e 463a 37bd e047 f0bc
000002c0: f815 a33d 9eec 933d 590a 82bd d64e dcbd
000002d0: bb06 0a3d 7bc0 bbbc 7a8d f23c 40f7 26bd
000002e0: faae 4b3d d06e 92be 7c69 f53b fde6 12bd
000002f0: 71a2 37bd db02 a63d 9b51 d0bd 4510 17bd
00000300: d392 42bb 0467 b13c 31f4 4abd be5b 7b3c
00000310: b298 573c b36f 3dbd f2ab dcbd 6086 623d
00000320: 9e7f aebd 2abf a1bd e698 223d fb9b 493d
00000330: fdd8 0ebd d022 fc3d 1d7f 853c aa4e f73c
00000340: a491 4fbd ae8b 1cbd d3b0 bfbc afa6 d5bd
00000350: 3010 6fbd 4088 c3bd fb70 febd af28 d43d
00000360: b294 cd3d 2140 4c3b a475 9fba 591b 883d
00000370: 300b 563e 9b99 27be e767 0ebd 63e0 283b
00000380: 5998 423d f4ec a63c 93fe 62bc da38 f9bd
00000390: c88d 69bd 297f 7f3d 7113 8fbc b3a3 783d
000003a0: 2a50 e73c a2dd b8bc ad5f a03d d4b9 2d3d
000003b0: db55 133d 35f6 ad3d 3611 533d 60bc e5bd
000003c0: b40c f63a 4220 82bd 5a3d 87bb 4674 793d
000003d0: e2e2 9cbc 7d2c e9bc 6593 38bd 3078 343c
000003e0: 4798 d33c 86de a93d 6d25 90bd 35dc 653e
000003f0: f200 c0bc 0395 8c3c 272b 1f3c f3ee a9bd

rnn.weight_hh_l2 f4 [128, 128]
0.21487217 -0.07925011 0.48477417 -0.2232173 0.107247286 -0.1237477 0.36959636 -0.2769421
-0.97431695 0.3719422 0.51688606 0.03240226 -0.53588414 0.34598783 -0.03717167 -0.28514656
-0.24342465 0.2232498 0.4477257 -0.2070946 0.47239727 -0.18755434 0.0013089818 0.46703482
0.12314906 -0.5761055 -0.28185937 0.49022156 -0.22053817 -0.3700266 -0.07000819 0.03483202
-0.10702479 -0.12514262 0.027898936 -0.1300856 -0.087458864 0.16995972 0.27956215 0.22127032
-0.5349785 -0.29398564 0.49880838 -0.2055092 -0.20574085 0.19984573 0.31025144 -0.33675003
-0.4168791 -0.60468626 0.03304519 -0.1092416 -0.2565418 0.06744949 -0.19322701 -0.756993
0.31589037 -0.13036874 -0.31556618 -0.4936992 -0.43316025 0.06769394 0.32743734 2.3797676e-05
0.10192444 -0.019639682 -0.27252838 0.6543275 0.26126796 -0.41683024 -0.3274687 0.34846792
0.42455262 -0.33649778 -0.11975569 -0.2938583 -0.23048817 0.07454301 -0.18875565 -0.3619321
0.15268555 -0.15039581 0.24951054 -0.025172435 -0.31538 0.38638657 0.08376498 -0.1815305
-0.019428335 -0.7013415 -0.018420994 0.18382895 -0.117638625 -0.24015732 0.23486668 -0.11448256
-0.1988508 0.16543068 -0.33077824 0.39369187 -0.36052647 0.19640821 0.28090504 -0.026886148
-0.11759782 0.06658148 -0.017819611 -0.047643047 -0.5950415 -0.054485522 0.32571787 0.5794826
0.0671671 0.01650136 0.0015337052 0.11421252 -0.39096174 0.25639242 -0.098969996 -0.10374609
-0.23491122 0.14398476 0.68722785 -0.12659638 -0.121608004 0.27035016 0.16678074 0.15053964
-0.17366157 -0.042820945 0.13051403 -0.088595144 0.0754301 -0.17003722 -0.066007584 0.26622137
0.17726432 0.6965458 0.19097458 -0.7131472 0.38910934 0.026254129 -0.063814014 -0.5623236
0.031019602 0.7501705 0.02056248 -0.077724315 0.11372546 0.5082667 0.23752809 0.80686235
0.14737928 -0.16791922 0.06323153 -0.20061961 -0.09274795 0.38256747 0.6475361 0.00025265577
-0.035664346 -0.12665491 -0.06366608 0.04847594 0.18535261 -0.16908267 0.19221872 0.19653238
-0.29978305 -0.35846874 -0.22253597 -0.27445155 0.24147853 0.03346365 0.026596991 0.3304377
0.08334515 0.13277352 -0.0065962644 0.009968748 -0.29276383 0.22880803 0.17310373 -0.16289248
0.15716892 -0.01861646 0.66252124 -0.111543424 0.09847988 0.24958827 0.11581052 -0.09844298
0.030602321 0.06666293 0.24062309 0.047017943 0.43496484 -0.092571355 0.06781461 -0.48305377
-0.31123838 -0.20251377 0.10068752 0.32815552 -0.15200001 0.069902346 0.0885503 0.016756548
-0.02473023 -0.016256688 -0.14310122 -0.19889201 0.39286718 0.12693028 -0.27864602 -0.019415269
0.25729546 0.17137556 0.11266496 0.16483578 -0.05167317 -0.16565308 -0.21276066 0.22940224
-0.07586164 0.3278334 -0.21291542 -0.001851703 -0.18923107 -0.023392849 -0.053849686 0.18858017
0.066415764 -0.41212985 0.18560886 0.5190665 -0.10547258 -0.45691532 -0.2532634 -0.26362932
0.15028124 0.021830563 0.39953658 0.121405564 -0.06877486 0.25301185 -0.16576253 0.22341175
-0.2758106 0.11012815 0.03377969 0.09277835 -0.11410807 0.14878792 0.81576973 0.19090979
00000000: 7307 5c3e e24d a2bd 5234 f83e 1393 64be
00000010: 77a4 db3d 6f6f fdbd bc3b bd3e 5bcb 8dbe
00000020: d66c 79bf 356f be3e a552 043f 3bb8 043d
00000030: b42f 09bf 5125 b13e 5241 18bd bbfe 91be
00000040: 5044 79be 989b 643e 4e3c e53e 9b10 54be
00000050: 0ede f13e 3f0e 40be 2492 ab3a 301f ef3e
00000060: 9335 fc3d a67b 13bf df4f 90be 52fe fa3e
00000070: c2d4 61be 2074 bdbe 7460 8fbd 05ac 0e3d
00000080: d02f dbbd 6325 00be 4f8c e43c 2935 05be
00000090: a21d b3bd ec09 2e3e c522 8f3e b094 623e
000000a0: 5af4 08bf 4985 96be d063 ff3e 0171 52be
000000b0: bbad 52be 5ca4 4c3e 47d9 9e3e 806a acbe
000000c0: 2d71 d5be b8cc 1abf 655a 073d 0fba dfbd
000000d0: 7259 83be f522 8a3d 4ddd 45be 4bca 41bf
000000e0: 62bc a13e 627f 05be e491 a1be 24c6 fcbe
000000f0: 2ec7 ddbe 1fa3 8a3d dea5 a73e 1fa1 c737
00000100: c3bd d03d 66e3 a0bc d788 8bbe 0282 273f
00000110: eac4 853e c66a d5be faa9 a7be 636a b23e
00000120: f65e d93e 7049 acbe 7942 f5bd 9874 96be
00000130: 1705 6cbe 01aa 983d 2949 41be 2a4f b9be
00000140: 9a59 1c3e 5c01 1abe b17f 7f3e 6c36 cebc
00000150: 7d79 a1be 76d4 c53e f98c ab3d 22e3 39be
00000160: 2c28 9fbc 1e8b 33bf a0e7 96bc a83d 3c3e
00000170: 85ec f0bd cdeb 75be e480 703e d575 eabd
00000180: 8b9f 4bbe a966 293e c45b a9be fb91 c93e
00000190: ed96 b8be 3c1f 493e c9d2 8f3e 5740 dcbc
000001a0: 20d7 f0bd df5b 883d 6ffa 91bc 5b25 43bd
000001b0: a454 18bf 362c 5fbd 7ec4 a63e f958 143f
000001c0: e88e 893d dc2d 873c 9b06 c93a 41e8 e93d
000001d0: 232c c8be de45 833e c8b0 cabd d478 d4bd
000001e0: 918c 70be be70 133e 2aee 2f3f 7ba2 01be
000001f0: 9e0d f9bd 566b 8a3e 92c8 2a3e 1027 1a3e
00000200: 57d4 31be 0465 2fbd 78a5 053e 5f71 b5bd
00000210: 197b 9a3d 3d1e 2ebe fc2e 87bd 2b4e 883e
00000220: c784 353e d350 323f d78e 433e d190 36bf
00000230: 5739 c73e e612 d73c ecb0 82bd 70f4 0fbf
00000240: d21c fe3c 2d0b 403f a572 a83c ed2d 9fbd
00000250: e5e8 e83d c41d 023f 903a 733e 888e 4e3f
00000260: 98ea 163e 04f3 2bbe 887f 813d 3a6f 4dbe
00000270: a3f2 bdbd e2df c33e edc4 253f e276 8439
00000280: c714 12bd d3b1 01be 5d63 82bd b58e 463d
00000290: 13cd 3d3e 0224 2dbe fcd4 443e c93f 493e
000002a0: 2a7d 99be 3789 b7be 78e0 63be ea84 8cbe
000002b0: 2646 773e 2e11 093d efe1 d93c 212f a93e
000002c0: ddb0 aa3d c8f5 073e 7a25 d8bb f653 233c
000002d0: 24e5 95be a74c 6a3e 1b42 313e 49cd 26be
000002e0: e4f0 203e 8c81 98bc fe9a 293f e170 e4bd
000002f0: d2af c93d 1194 7f3e 112e ed3d 799c c9bd
00000300: b8b1 fa3c 9386 883d e665 763e e395 403d
00000310: b6b3 de3e 0d96 bdbd 63e2 8a3d d352 f7be
00000320: a35a 9fbe c55f 4fbe 4235 ce3d 0004 a83e
00000330: e4a5 1bbe f628 8f3d dc59 b53d 0745 893c
00000340: 0d97 cabc bf2c 85bc 2089 12be 59aa 4bbe
00000350: e325 c93e 03fa 013e b1aa 8ebe c50c 9fbc
00000360: 3bbc 833e 137d 2f3e e3bc e63d b6ca 283e
00000370: 3fa7 53bd f6a0 29be eedd 59be 6ce8 6a3e
00000380: 595d 9bbd c8d9 a73e 8006 5abe d8b4 f2ba
00000390: cac5 41be 5ca2 bfbc 7d91 5cbd 291b 413e
000003a0: fd04 883d af02 d3be 4010 3e3e 8be1 043f
000003b0: 0202 d8bd cef0 e9be beab 81be 6cfa 86be
000003c0: 53e3 193e 02d6 b23c 0f90 cc3e 7ba3 f83d
000003d0: d5d9 8cbd c58a 813e a7bd 29be 0dc6 643e
000003e0: 0c37 8dbe de8a e13d 925c 0a3d 9302 be3d
000003f0: 7eb1 e9bd dc5b 183e 49d6 503f db7d 433e
