Models/best_lstm_model.pth (torch, 955659 bytes, 10 tensors)

lstm.weight_ih_l0 f4 [512, 62]
0	0xbf44ab6e	-0.7682408
1	0x3f39801b	0.724611
2	0xbf019245	-0.50613815
3	0x3f78869a	0.97080386
4	0xbe7e975e	-0.2486243
5	0x3e63c2d1	0.22242285
6	0xbf591d68	-0.84810495
7	0xbed20b91	-0.4102445
8	0x3fbb2775	1.4621416
9	0xbe95fd70	-0.2929492
10	0xbfa5e604	-1.296082
11	0x40060332	2.093945
12	0x3df621bc	0.12018153
13	0x3e741e7b	0.23839752
14	0xbf192ffb	-0.5983884
15	0x3fbefc1a	1.4920685
16	0x3fda8815	1.7072779
17	0x3f031116	0.51197946
18	0xbf2b0479	-0.668037
19	0xbfdc66ee	-1.7218912
20	0xbf1ab04c	-0.6042526
21	0x3ec79cab	0.38986716
22	0xbf4deeda	-0.80442584
23	0x3e3e2f65	0.18572767
24	0xbf46ea57	-0.77701324
25	0xbedd9c78	-0.4328344
26	0xbe8e756e	-0.27823967
27	0x3f5903b8	0.847713
28	0xbf68a10c	-0.9087074
29	0xbeea3934	-0.45746768
30	0xbe82dc36	-0.25558633
31	0x3f670f82	0.9025804
32	0x3f3c2f38	0.7350955
33	0x3f8d613e	1.1045301
34	0x40130b94	2.2975817
35	0xbef18731	-0.47173455
36	0xbea412eb	-0.32045683
37	0xbed6ce6a	-0.41954356
38	0xbe5cbeef	-0.2155721
39	0xbf6a5300	-0.915329
40	0xbf205323	-0.62626857
41	0x3daed139	0.08536
42	0x3e75c5ec	0.24001282
43	0x3e0e230e	0.1388056
44	0x3f438a33	0.7638275
45	0x3fe0d109	1.7563792
46	0x3e7b2394	0.2452529
47	0xbe31ba57	-0.1735624
48	0x3f3bf6f2	0.73423684
49	0xbde6a85b	-0.1126258
50	0xbdef4153	-0.116823815
51	0xbfad0aeb	-1.3518957
52	0x3fd9d7a9	1.7018939
53	0x3f5b5f2b	0.8569209
54	0xc02611aa	-2.5948281
55	0x3e5d3265	0.21601255
56	0x3f21ec0d	0.6325081
57	0x3fbf05f2	1.4923689
58	0xbe185f41	-0.14880086
59	0x3cfd2dc4	0.030905612
60	0xbd994665	-0.0748413
61	0x3e941185	0.28919616
62	0x3f13bd27	0.577105
63	0x3d9672cf	0.07346117
64	0xbd8b5df1	-0.06805027
65	0x3eb72c05	0.35775772
66	0xbf25f1e7	-0.6482224
67	0xbe8cf0df	-0.2752752
68	0xbf4d8297	-0.8027739
69	0x3e8e9e0a	0.2785495
70	0xbf956af6	-1.1673267
71	0xbf16dc91	-0.5893031
72	0xbf061b10	-0.52385044
73	0xbe816aee	-0.25276893
74	0x3f522ba5	0.82097846
75	0xbec499e6	-0.38398665
76	0x3ea1ce26	0.3160259
77	0x3f1c7f5d	0.6113184
78	0x3d6ba47f	0.057529923
79	0xbe1fddd8	-0.1561197
80	0xbf8277fd	-1.0192868
81	0x3d80b106	0.062837645
82	0x3fb50030	1.4140682
83	0x3eb88409	0.36038235
84	0xbf426840	-0.7594032
85	0xbf13a5fa	-0.57675135
86	0xbfc3cff5	-1.5297838
87	0x40085678	2.1302776
88	0x3f849aa0	1.0359688
89	0x3f4f3b94	0.80950284
90	0x3f5f5ccc	0.8725097
91	0x3f5a1483	0.8518755
92	0x3f23375f	0.63756365
93	0x3f52f160	0.8239956
94	0x3f3dc5b6	0.7412981
95	0x3fd58edd	1.6684223
96	0xbe072ed4	-0.13201457
97	0xbe163fe0	-0.14672804
98	0x3d4e19be	0.05031752
99	0xbf00e408	-0.5034795
100	0xbf99c12b	-1.2012075
101	0x3ea1ab59	0.3157604
102	0xbf0a8515	-0.5410932
103	0x3f6454d8	0.8919196
104	0x3e2c475a	0.16824093
105	0xbedbcbf8	-0.42929053
106	0x3f81f10a	1.0151684
107	0xbfad0ce7	-1.3519562
108	0xbf4c17aa	-0.7972361
109	0x3e915ae6	0.28389663
110	0x3f49cb44	0.78825784
111	0x3d9bf5c1	0.07615233
112	0x3f33ee65	0.70285636
113	0x3f75e446	0.9605144
114	0xbf24f91a	-0.644426
115	0xbf0447db	-0.5167214
116	0x3f8c5742	1.0964129
117	0xbf081065	-0.53150016
118	0x3f81a2f9	1.012786
119	0x3fcf6b0d	1.6204544
120	0x3e79f268	0.24408877
121	0x3f812215	1.0088526
122	0xbf399da3	-0.7250616
123	0xbf45ed2e	-0.7731503
124	0xbee522c8	-0.44753098
125	0x3fb60a50	1.4221897
126	0xbf0041a2	-0.5010015
127	0xbd14c54a	-0.036320962
128	0x3fb34011	1.4003927
129	0xbfdb7ee5	-1.71481
130	0xbfcaf1aa	-1.5855
131	0x3fc992a7	1.574788
132	0x3ff80736	1.9377201
133	0xbfab0f23	-1.3363994
134	0xbe051e12	-0.12999752
135	0x3f86b17e	1.0522916
136	0x3f920cc5	1.1410147
137	0x3f7321f5	0.9497369
138	0x3edbcf60	0.42931652
139	0xbf2b2482	-0.6685258
140	0xbee32951	-0.4436746
141	0xbe8b589f	-0.2721605
142	0xbdb57b92	-0.0886146
143	0xbeef9c7a	-0.4679907
144	0xbf8c743d	-1.0972973
145	0xbef743f8	-0.48294044
146	0x4002bd85	2.0428174
147	0x401620f0	2.3457603
148	0x3fa02c43	1.2513508
149	0xbfc5f90f	-1.5466632
150	0x3fb92c60	1.4466667
151	0xbffe491b	-1.986606
152	0x3d5ebdfe	0.05438041
153	0xc02ab63f	-2.6673734
154	0xc0029e32	-2.0409055
155	0xbf1c55d3	-0.6106846
156	0x40013ebf	2.0194547
157	0x3fd4420b	1.6582655
158	0xbfe591f7	-1.793517
159	0xbe228413	-0.15870695
160	0x4013912a	2.305735
161	0x3fbb4c8c	1.4632735
162	0x3f5bc689	0.85849816
163	0xbd5d3a90	-0.054010928
164	0x3f3a032b	0.72661084
165	0xbe65357e	-0.22383687
166	0x402a4a2f	2.6607778
167	0x3f0745eb	0.5284106
168	0x4059aeaf	3.4012868
169	0x3dda4ff3	0.1065978
170	0xc03258ac	-2.786662
171	0x3eb3988a	0.35077316
172	0x3f314b98	0.6925597
173	0x3dc8f482	0.09812261
174	0xbf5928d2	-0.8482791
175	0x3f858894	1.0432305
176	0x3f96ab2e	1.177099
177	0xbecebedf	-0.40379998
178	0x3f8a21de	1.0791585
179	0xbf659f5f	-0.89696306
180	0xbf72f1c1	-0.9490014
181	0x3f20d926	0.6283134
182	0x401fe0c2	2.4980931
183	0x3dec6ecf	0.115445726
184	0xbfc677b6	-1.5505283
185	0xbe47a449	-0.19496264
186	0x3f0ff3aa	0.56231177
187	0x3f069dec	0.5258472
188	0x3f793408	0.9734502
189	0x3f7c1071	0.9846259
190	0xbef222e5	-0.47292247
191	0x3f10a231	0.56497484
192	0xbf2c42e0	-0.67289543
193	0xbd8c15a0	-0.06840062
194	0x3e3c108e	0.1836569
195	0x3e4cf488	0.20015156
196	0xbf5ba9d3	-0.85806006
197	0x3fa87503	1.3160709
198	0xbec80e9d	-0.3907365
199	0xbdb7fc40	-0.0898366
200	0xbf4d19f1	-0.8011771
201	0x3f13665c	0.57578063
202	0xbc059e58	-0.008155428
203	0xbeb48194	-0.3525511
204	0xbf1898a2	-0.596079
205	0x3e5a0865	0.21292265
206	0xbe697046	-0.22796735
207	0x3f869373	1.0513748
208	0x3e85e00d	0.261475
209	0x3e9512c2	0.29115874
210	0x3f461862	0.77380955
211	0x3f8ef0dd	1.1167256
212	0x3f0c7e7e	0.5488051
213	0x3f6213ee	0.8831166
214	0xbf11d4cd	-0.56965333
215	0x3d8da7fd	0.06916807
216	0xbf12f3cc	-0.57403255
217	0x3f259f02	0.6469575
218	0xbe13d0af	-0.14435075
219	0xbf541ade	-0.82853496
220	0xbf66b1fe	-0.90115345
221	0x3ea30e77	0.31846973
222	0xbeddb2bd	-0.4330043
223	0xbf3e96e5	-0.74448997
224	0xbec33be0	-0.38131618
225	0x3dec0f31	0.11526335
226	0x3ee9337b	0.4554709
227	0xbe79eea1	-0.24407436
228	0x3e253783	0.16134457
229	0x3f15f2fb	0.58573884
230	0xbf7196a9	-0.94370514
231	0x3f76b076	0.9636301
232	0xbee30db1	-0.44346383
233	0xbf9a5b27	-1.2059067
234	0x3fcf4347	1.6192406
235	0x3f751322	0.9573232
236	0xbed06875	-0.40704694
237	0xbeb53283	-0.353901
238	0xbf18c49f	-0.5967502
239	0x3d2b0e05	0.041761417
240	0x3fb9812d	1.4492546
241	0xbee52a12	-0.4475866
242	0x3f3b17f1	0.73083407
243	0x3f4da7df	0.80334276
244	0x3ddc448b	0.10755261
245	0x3ef0adf4	0.47007716
246	0x3f2d1618	0.6761184
247	0x3ee6d9a2	0.45087916
248	0xbed70c8e	-0.42001766
249	0xbf02270f	-0.5084085
250	0xbebc8867	-0.36822817
251	0xbe31a456	-0.17347845
252	0x3e7e5122	0.24835637
253	0xbd0f3ec1	-0.034971956
254	0x3f333a09	0.7001043
255	0x3da3fc78	0.08007139

lstm.weight_hh_l0 f4 [512, 128]
0	0x3eedcc63	0.46444997
1	0xbe11ff71	-0.142576
2	0xbf00a6fa	-0.50254786
3	0x3d8148ec	0.06312737
4	0x3e2fe2ac	0.17176312
5	0x3ee5aa4d	0.44856492
6	0xbdf27be5	-0.11840037
7	0x3d77ba82	0.060480602
8	0x3efed225	0.49769703
9	0xbedd75db	-0.4325398
10	0x3eb6bee6	0.3569252
11	0xbf0deed8	-0.5544257
12	0xbe6c1889	-0.23056234
13	0xbebe8b1d	-0.3721551
14	0x3cd17010	0.02556613
15	0xbe02ce4c	-0.12774009
16	0xbeab9e17	-0.3351905
17	0x3ebd66c3	0.36992463
18	0xbe0c6e7f	-0.13714026
19	0x3e8c3580	0.27384567
20	0x3ed9c963	0.42536458
21	0xbd02ec0a	-0.031963386
22	0x3dc0d608	0.09415823
23	0x3d409483	0.04701663
24	0xbe10b582	-0.1413174
25	0xbd002382	-0.031283863
26	0xbe1e3898	-0.15451276
27	0x3eb212d5	0.34779993
28	0xbedb1ac4	-0.42793858
29	0x3ec7eab9	0.39046267
30	0xbcaba961	-0.02095479
31	0xbf1441b1	-0.5791274
32	0xbe2e0783	-0.16995053
33	0xbc30754a	-0.010770151
34	0xbf080cbc	-0.5314443
35	0x3e18b9b5	0.14914592
36	0xbf3dc7e9	-0.74133164
37	0xbde89dec	-0.11358246
38	0xbe585997	-0.21127926
39	0x3e8f52f3	0.27992973
40	0xbe817038	-0.2528093
41	0xbec33df0	-0.38133192
42	0xbeb54a2c	-0.3540815
43	0x3e0b56f7	0.13607393
44	0xbeb6a6e9	-0.35674217
45	0x3edb741a	0.42862016
46	0xbf07d4f7	-0.53059334
47	0xbdf42406	-0.119209334
48	0x3da44875	0.080216326
49	0x3da98337	0.0827698
50	0x3e81cd71	0.25352052
51	0x3d5d6a47	0.054056432
52	0x3eb57b1c	0.35445487
53	0x3b82be14	0.0039899442
54	0x3d8acf1c	0.06777784
55	0xbe8a517b	-0.2701529
56	0x3defbff5	0.11706535
57	0x3e8b5bf3	0.2721859
58	0xbda3ef5a	-0.08004637
59	0xbde7bf86	-0.11315827
60	0x3e8f44d8	0.2798221
61	0x3e570cec	0.21001023
62	0xbe1a0024	-0.15039116
63	0xbe719571	-0.23592164
64	0xbf10aa5c	-0.5650995
65	0xbf1a5e11	-0.60299784
66	0x3ee4d22d	0.446916
67	0x3e01e222	0.12683919
68	0x3ee05f2a	0.43822604
69	0x3ebd2048	0.3693869
70	0xbd20c233	-0.039247703
71	0xbe905154	-0.28187048
72	0x3eb3c4ef	0.35111186
73	0xbe9f089f	-0.31061265
74	0x3e5c0e2f	0.21489786
75	0x3db4bf54	0.088255554
76	0xbd253402	-0.0403328
77	0xbf670460	-0.9024105
78	0xbe479347	-0.19489776
79	0x3e9f7aa0	0.31148243
80	0x3ee47f14	0.44628203
81	0x3d93652d	0.07197032
82	0xbe3c7c67	-0.1840683
83	0xbea412f8	-0.32045722
84	0xbf5a8550	-0.8535967
85	0xbe93f35a	-0.288966
86	0xbe306bd0	-0.17228627
87	0xbdbdc654	-0.09266344
88	0x3e885bae	0.26632446
89	0xbe1f8dac	-0.15581387
90	0xbea48c1c	-0.32138145
91	0xbefe148f	-0.4962506
92	0x3edada99	0.42744902
93	0x3f01cac6	0.5070003
94	0xbd5dd325	-0.05415644
95	0xbd19c068	-0.03753701
96	0xbece07ed	-0.40240422
97	0x3e51ad1f	0.20476197
98	0xbdefeac5	-0.117147006
99	0xbe4510aa	-0.19244638
100	0x3edfe9c6	0.43733042
101	0xbde0b677	-0.109723024
102	0x3db45c76	0.08806698
103	0x3f158cdd	0.58418065
104	0xbe3f53b9	-0.18684281
105	0x3e978591	0.2959409
106	0xbf1521bd	-0.58254606
107	0xbeb7c648	-0.35893464
108	0xbdf45587	-0.119303755
109	0x3de6d252	0.11270584
110	0xbe8cf893	-0.27533397
111	0xbe2f63a8	-0.1712786
112	0xbe955007	-0.2916262
113	0x3eda536f	0.4264178
114	0x3f08481b	0.53235024
115	0x3d4f13e2	0.05055607
116	0xbd97adac	-0.07406172
117	0x3d953254	0.0728499
118	0x3c0fd629	0.008779087
119	0xbe8843a4	-0.26614106
120	0xbe892167	-0.26783296
121	0xbed3cafd	-0.41365805
122	0x3f462bf5	0.77410823
123	0x3f629eb9	0.8852344
124	0x3f3f745a	0.74786913
125	0x3e9f6f1b	0.31139454
126	0xbe2542d0	-0.16138768
127	0x3ea953d2	0.33071762
128	0xbefb15f9	-0.490402
129	0x3e823413	0.25430354
130	0xbf13e009	-0.57763726
131	0xbf3adc1d	-0.72992116
132	0x3e338ace	0.17533419
133	0x3f455634	0.7708466
134	0xbf2c8405	-0.67388946
135	0x3d1b8599	0.037969206
136	0xbe283d03	-0.16429524
137	0xbec41701	-0.382988
138	0x3ead2402	0.33816534
139	0xbe84255a	-0.25809747
140	0xbe196d5e	-0.14983127
141	0xbe8ba3b5	-0.27273336
142	0xbf685556	-0.9075521
143	0xbec311eb	-0.38099608
144	0xbe31f750	-0.17379498
145	0xbedca758	-0.43096423
146	0x3d8471f8	0.0646705
147	0xbe351471	-0.17683579
148	0x3ea78c3c	0.32724178
149	0x3bdd3cc0	0.0067516267
150	0xbece70c8	-0.4032042
151	0x3eab1dbf	0.33421132
152	0xbed25754	-0.4108225
153	0x3e3e8a00	0.1860733
154	0xbed24860	-0.41070843
155	0xbde08da3	-0.10964515
156	0x3e93816a	0.28809673
157	0x3d878960	0.06617999
158	0xbe6fa88c	-0.2340414
159	0x3cb3ffaf	0.021972505
160	0x3f4ac56c	0.7920749
161	0xbe0a9ca6	-0.13536319
162	0xbd41a5f4	-0.047277406
163	0x3f491265	0.7854369
164	0x3ce7cc84	0.028295763
165	0xbf096466	-0.5366882
166	0x3c951f06	0.01820327
167	0xbc966854	-0.018360294
168	0xbf351277	-0.707313
169	0x3d1f2865	0.038856883
170	0xbcd81909	-0.026379125
171	0xbf4dcd1d	-0.80391103
172	0xbea6628e	-0.32497066
173	0xbeca8508	-0.3955462
174	0xbf69a17e	-0.9126204
175	0x3f47c815	0.78039676
176	0xbee3d1fe	-0.4449615
177	0xbee8b014	-0.45446837
178	0xbeb1172d	-0.34587994
179	0xbf32037f	-0.69536585
180	0xbf3094dc	-0.6897714
181	0x3f63d1db	0.8899209
182	0x3ea1e9a6	0.31623572
183	0x3e5c3eda	0.21508351
184	0xbf41c23c	-0.75687003
185	0x3e012b2b	0.12614124
186	0xbf8ad049	-1.0844814
187	0x3ddc641a	0.1076128
188	0xbe8b0bd0	-0.2715745
189	0xbe85128e	-0.2599072
190	0x3d5ba539	0.053624365
191	0xbe921e67	-0.2853882
192	0xbec09444	-0.37613118
193	0xbf778811	-0.96691996
194	0x3f3a7b45	0.72844344
195	0x3ed28646	0.41118068
196	0xbee9cf63	-0.45666036
197	0xbecce5e8	-0.40019155
198	0xbe6e60e7	-0.23279153
199	0xbe295bd2	-0.16538933
200	0xbee66cf2	-0.45004994
201	0xbc84c50c	-0.01620724
202	0xbde49e0c	-0.111629575
203	0x3ec09504	0.3761369
204	0x3d9ea4c9	0.07746274
205	0x3f35bf17	0.70994705
206	0xbf95fbbd	-1.171745
207	0xbef8b3a0	-0.48574543
208	0x3eae0054	0.33984625
209	0x3dba18e5	0.090867795
210	0xbe5a267d	-0.21303745
211	0x3f002aab	0.50065106
212	0xbe7ce101	-0.24695207
213	0x3ecf7a5a	0.40523034
214	0xbe90f6d9	-0.2831333
215	0xbeba8974	-0.36432993
216	0x3ee53133	0.447641
217	0x3e0866e1	0.13320495
218	0x3e85f4f8	0.2616346
219	0x3c50d932	0.012747096
220	0xbd8d1498	-0.068886936
221	0xbebf25a3	-0.37333402
222	0x3f4db876	0.8035959
223	0x3c53457d	0.012894985
224	0xbf06fa09	-0.52725273
225	0x3f3e5a0b	0.74356145
226	0x3e1ee50d	0.15517063
227	0x3e63b228	0.2223593
228	0x3f2a7fa7	0.6660103
229	0xbaa1ebf3	-0.0012353644
230	0x3f112a71	0.56705385
231	0x3edab677	0.42717335
232	0xbfa55e4b	-1.2919401
233	0xbdbf4652	-0.093395844
234	0xbeb7cf38	-0.35900283
235	0xbee0d4ae	-0.43912262
236	0xbe462e32	-0.1935356
237	0xbd8814ad	-0.066445686
238	0xbe458dbb	-0.19292347
239	0x3ef9415f	0.48682687
240	0x3ed8771f	0.42278382
241	0xbe265f0f	-0.162472
242	0xbf40c2cd	-0.7529724
243	0xbeb0337c	-0.3441428
244	0x3dea35d4	0.11436048
245	0x3e8839ba	0.26606542
246	0xbf4cd46a	-0.8001162
247	0xbe76a74f	-0.2408726
248	0x3f323b41	0.69621664
249	0xbef3759c	-0.47550666
250	0x3cd75972	0.026287768
251	0x3ea5750d	0.32315865
252	0x3d85297b	0.065020524
253	0xbd890d01	-0.066919334
254	0xbd043502	-0.032277115
255	0x3f35250a	0.7075964

lstm.bias_ih_l0 f4 [512]
0	0x3d953d73	0.07287111
1	0x3e307a2b	0.17234103
2	0x3e3f7598	0.18697202
3	0x3e877814	0.264588
4	0xbe0aabf6	-0.1354216
5	0x3e059667	0.13045655
6	0x3f0a0352	0.53911316
7	0x3e7d0b81	0.2471142
8	0xbd2041fa	-0.03912542
9	0x3e4a220b	0.19739549
10	0xbd822c1e	-0.06356071
11	0x3c15762c	0.009122413
12	0xbdcf8c50	-0.10134184
13	0x3a8ac081	0.0010585935
14	0xbe6f5bb9	-0.23374833
15	0x3de990ea	0.11404593
16	0xbe1a75e2	-0.15084031
17	0x3e040ed5	0.12896283
18	0x3ed744ee	0.42044777
19	0xbdce5949	-0.100756235
20	0xbdd9c068	-0.10632402
21	0x3cab67e6	0.020923566
22	0x3d8e4506	0.06946759
23	0x3f2f6e3d	0.68527585
24	0x3c644623	0.0139327375
25	0xbdbc3117	-0.09189051
26	0xbe30a9e8	-0.17252314
27	0xbe51169f	-0.20418786
28	0x3eef8657	0.4678218
29	0xb9dc69c7	-0.0004204048
30	0x3eec96ab	0.462087
31	0xbe055aaf	-0.13022874
32	0xbed4f367	-0.4159195
33	0x3e2426a7	0.1603037
34	0x3cd0a671	0.02546999
35	0x3e3e99bf	0.18613337
36	0xbe268a82	-0.16263774
37	0xbe270f15	-0.16314347
38	0x3eed6663	0.46367177
39	0x3e4b877c	0.19875902
40	0xbe3f0804	-0.18655401
41	0xbb2ffc09	-0.0026853106
42	0x3f1b38c6	0.60633504
43	0x3d9faa53	0.07796159
44	0xbd3975c1	-0.045278315
45	0xbdc6e19f	-0.097110026
46	0x3de36efe	0.111051545
47	0xbc2771bd	-0.010219988
48	0x3eaf6bfa	0.34262067
49	0x3e08dd22	0.13365605
50	0xbd9249d9	-0.071429916
51	0x3e8c568f	0.2740979
52	0x3f0dfd31	0.55464464
53	0xbd349e83	-0.04409648
54	0x3e766bb2	0.2406452
55	0xbe587be7	-0.21141015
56	0xbe1bed95	-0.15227349
57	0x3e1a502f	0.1506965
58	0xbdfc1553	-0.12308755
59	0xbd342c09	-0.043987308
60	0x3ece8fc8	0.4034407
61	0x3e595f97	0.21227871
62	0x3d0fdc44	0.03512217
63	0xbc4ebf38	-0.012618832
64	0xbe4f2764	-0.2022987
65	0x3d81ef18	0.06344432
66	0xbd1728b5	-0.036904056
67	0x3eb74cd3	0.358008
68	0xbe496c89	-0.19670309
69	0x3ebf67c2	0.37383848
70	0x3dddd688	0.10831934
71	0x3ee69666	0.4503662
72	0xbe4d4e58	-0.20049417
73	0x3e52c115	0.20581467
74	0xbe712f6f	-0.2355325
75	0x3e83d952	0.2575174
76	0x3cac1deb	0.02101036
77	0x3e1a5f00	0.15075302
78	0x3e30f841	0.17282201
79	0x3e55dbbd	0.20884605
80	0xbec4e553	-0.3845621
81	0x3ef94543	0.48685655
82	0xbdcbd2fe	-0.09952353
83	0x3d436420	0.04770291
84	0x3d51e7f2	0.05124659
85	0xbd6bf02e	-0.0576021
86	0xbb8ed4bc	-0.004358856
87	0x3e199d33	0.15001373
88	0x3e776173	0.24158268
89	0x3e36fc3d	0.17869659
90	0x3cc7633c	0.02433931
91	0x3e1df615	0.15425904
92	0x3dceda97	0.101002865
93	0xbcab713c	-0.020928018
94	0x3e426876	0.18985161
95	0x3e2a6693	0.16640691
96	0x3f040c46	0.5158123
97	0x3e6dc7ae	0.23220703
98	0x3d81eef4	0.06344405
99	0xbdfa75ac	-0.122294754
100	0x3ea0fa2d	0.3144087
101	0x3da72609	0.081615515
102	0xbe22c390	-0.15894914
103	0x3e48b16e	0.19598934
104	0x3d9b1323	0.075720094
105	0xbe2ad598	-0.16683042
106	0xbda8e17e	-0.08246134
107	0xbde25fe6	-0.110534474
108	0x3eabcf5d	0.33556643
109	0x3eb23c41	0.34811595
110	0x3f1f8200	0.6230774
111	0x3bde34ee	0.006781212
112	0xbe02f306	-0.12788019
113	0x3d4561dd	0.048189033
114	0xbe1ff22e	-0.15619728
115	0x3e3b88f5	0.18313964
116	0x3e51462c	0.20436925
117	0xbdfa27fc	-0.12214658
118	0xbd67d385	-0.056598205
119	0xbbfadf16	-0.0076559884
120	0xbd358579	-0.044316743
121	0x3ed15986	0.40888613
122	0x3dcf4e52	0.1012236
123	0x3e335737	0.17513739
124	0x3eacf25b	0.33778653
125	0x3db45c23	0.08806636
126	0xbcdba61c	-0.026812606
127	0xbe8233e8	-0.25430226
128	0xbe91581a	-0.2838753
129	0xbe3e2d65	-0.18572004
130	0xbe3359ab	-0.17514674
131	0xbe463c63	-0.19358973
132	0xbe2382cc	-0.15967864
133	0x3e039cb6	0.12852749
134	0xbe7cff18	-0.24706686
135	0x3dee1d55	0.116266884
136	0xbeb8b0bb	-0.36072335
137	0x3dc37c0f	0.09545147
138	0xbe76eecf	-0.24114536
139	0x3d16cc74	0.036816075
140	0xbd1e110d	-0.03859048
141	0xbe81a98d	-0.2532467
142	0x3e1336cc	0.14376372
143	0xbeb222e3	-0.3479224
144	0x3defcbe2	0.117088094
145	0xbe7cca32	-0.24686506
146	0xbeac552a	-0.33658725
147	0xbd3ef096	-0.04661616
148	0xbd1e769f	-0.038687345
149	0x3abaf552	0.0014263785
150	0xbe3bcefe	-0.1834068
151	0xbebbd3d3	-0.36685047
152	0xbe7a9d80	-0.24474144
153	0x3d2b9bc2	0.04189659
154	0x3d8ec3ab	0.069709145
155	0xbdb6a2cc	-0.0891777
156	0xbea2d058	-0.3179958
157	0x3cd3bd26	0.025847029
158	0xbe3da108	-0.1851846
159	0xbce118ba	-0.02747761
160	0x3d5f717f	0.054551598
161	0xbe61762c	-0.22017735
162	0xbd67c7ee	-0.056587152
163	0xbe864a64	-0.2622863
164	0x3c299a7f	0.010351776
165	0xbbb02377	-0.0053753215
166	0xbdea2aad	-0.11433921
167	0xbea34bf3	-0.31893882
168	0xbd91f629	-0.071270294
169	0xbcccae3d	-0.024985427
170	0xbedb327b	-0.4281195
171	0xbeb94578	-0.36185813
172	0xbd6c7d90	-0.057736933
173	0xbda9566c	-0.08268437
174	0xbd68d789	-0.056846175
175	0xbe6a5a17	-0.22885929
176	0xbe3f74cc	-0.18696898
177	0xbe0f9e76	-0.14025292
178	0xbe917d46	-0.2841589
179	0xbe3ffda6	-0.18749103
180	0xbeba1841	-0.3634663
181	0xbe4f69b4	-0.20255166
182	0x3bc60e04	0.0060441513
183	0xbe4b91c5	-0.19879825
184	0x3ceb4a7d	0.028722042
185	0x3e10b65e	0.14132068
186	0xbda8bec6	-0.08239512
187	0x3ce6de48	0.028182164
188	0xbe499fea	-0.19689909
189	0xbe25087c	-0.16116518
190	0xbdc4b224	-0.0960429
191	0x3d8f56d0	0.0699898
192	0xbc91b626	-0.01778705
193	0xbde96c14	-0.113975674
194	0x3cd128de	0.025532182
195	0xbe3fff7b	-0.18749802
196	0xbe288296	-0.16456065
197	0xbe500e42	-0.20317939
198	0x3ee0024c	0.43751752
199	0xbe940da1	-0.28916648
200	0xbde130cf	-0.109956376
201	0xbde23e6d	-0.11047063
202	0x3e97b938	0.29633498
203	0xbd9ddbf1	-0.07707966
204	0x3d783fae	0.060607605
205	0xbe38f904	-0.18063742
206	0xbc797751	-0.015226201
207	0xbecd9cab	-0.4015859
208	0x3e09e470	0.13466048
209	0xbeb22b09	-0.34798458
210	0xbdbdbf27	-0.09264975
211	0xbe2b6844	-0.16738993
212	0xbe027c43	-0.12742715
213	0x3c64e0c4	0.013969604
214	0x3dfa02c5	0.122075595
215	0xbeb5946b	-0.35464796
216	0xbdddb218	-0.10824984
217	0xbe01672e	-0.12637016
218	0xbe322bc0	-0.17399502
219	0xbe81ec45	-0.25375572
220	0xbca6f736	-0.020381551
221	0xbe21c4d8	-0.15797746
222	0xbd815e6b	-0.06316837
223	0xbdcca264	-0.09991911
224	0x3e1d4662	0.1535888
225	0xbd64819f	-0.05578768
226	0xbddc1cea	-0.107477024
227	0x3df8fcda	0.121576026
228	0x3c046459	0.008080565
229	0xbdb145a8	-0.08655864
230	0xbea01c2c	-0.31271493
231	0xbe3222c6	-0.17396078
232	0x3d24e803	0.040260326
233	0x3c79f5d2	0.015256362
234	0x3e17cb8b	0.14823739
235	0x3cc1d5d9	0.02366154
236	0xbe5f1b7c	-0.21787828
237	0xbe91e2f4	-0.28493464
238	0xbdbcef39	-0.092253156
239	0xbe71eda0	-0.23625803
240	0xbe172730	-0.14761043
241	0x3cc3e282	0.023911718
242	0x3c1ecfe2	0.009693118
243	0xbec46178	-0.38355613
244	0x3d7acdde	0.061231486
245	0xbdda5c72	-0.10662164
246	0xbe9c6087	-0.30542395
247	0xbeacef12	-0.33776146
248	0xbe0a1914	-0.13486129
249	0xbe9a4b95	-0.3013579
250	0xbe10a563	-0.1412559
251	0xbd95093d	-0.07277153
252	0xbe6b49eb	-0.22977416
253	0x3c1597d0	0.009130433
254	0xbe0a2f3a	-0.13494578
255	0xbe1323c6	-0.14369115

lstm.bias_hh_l0 f4 [512]
0	0x3ce07435	0.027399162
1	0x3e076441	0.13221838
2	0x3e40481c	0.18777508
3	0x3ea885e5	0.32914653
4	0xbd808e14	-0.06277099
5	0x3dd54b6c	0.10414776
6	0x3f10fed8	0.5663886
7	0x3e36f444	0.17866617
8	0xbd5304eb	-0.051518362
9	0x3e38f258	0.18061197
10	0xbd87701e	-0.066131815
11	0x3d0ee531	0.034886543
12	0xbd4b1e44	-0.04958941
13	0x3d95fdb9	0.073237844
14	0xbe6d7427	-0.2318884
15	0x3e00e4db	0.12587301
16	0xbdb6afd9	-0.08920259
17	0x3e06b370	0.13154387
18	0x3ecaab0e	0.3958363
19	0xbe094715	-0.13406022
20	0xbe0a484d	-0.13504143
21	0xbc84d862	-0.01621646
22	0x3d8e9903	0.069627784
23	0x3f3155b1	0.6927138
24	0xbb3ab20e	-0.0028487477
25	0xbd683a02	-0.056695946
26	0xbde642c5	-0.11243204
27	0xbe0f5e42	-0.140008
28	0x3ef3a465	0.4758636
29	0xbcf7da7c	-0.030255549
30	0x3ed8d69c	0.42351234
31	0xbe1f497f	-0.1555538
32	0xbed91ed9	-0.42406347
33	0x3e1a71a9	0.1508242
34	0x3d82510c	0.06363115
35	0x3e2102bc	0.157237
36	0xbe36cccb	-0.1785156
37	0xbdd695ca	-0.10477789
38	0x3ef5fde4	0.48045266
39	0x3e388e2e	0.18022987
40	0xbe669427	-0.22517453
41	0xbd8293e0	-0.06375861
42	0x3f182fa7	0.5944771
43	0x3dd7af49	0.1053148
44	0xbb2f5931	-0.0026756043
45	0xbddc307b	-0.107514344
46	0x3de44a37	0.11146968
47	0xbc848d3f	-0.016180633
48	0x3eb1e977	0.34748432
49	0x3e31c2f2	0.17359522
50	0xbe080654	-0.13283664
51	0x3eb137dd	0.34612933
52	0x3f0d503c	0.5520055
53	0xbdf46911	-0.11934102
54	0x3e88655e	0.26639837
55	0xbe8e9086	-0.27844638
56	0xbe234638	-0.15944755
57	0x3e427b2e	0.18992302
58	0xbdfc3fc0	-0.12316847
59	0xbd865882	-0.0655985
60	0x3ec06d0b	0.37583193
61	0x3e6a299a	0.22867432
62	0x3d6bf001	0.057601932
63	0xbd04c959	-0.032418583
64	0xbe601217	-0.218819
65	0x3de6f539	0.11277241
66	0xbca995df	-0.020701347
67	0x3eb750d0	0.35803843
68	0xbe4d94fc	-0.20076364
69	0x3ea81b9e	0.3283357
70	0x3e325531	0.1741531
71	0x3ed4030b	0.41408572
72	0xbe4ca789	-0.19985785
73	0x3e135e9c	0.1439156
74	0xbe6e64ca	-0.23280635
75	0x3e734e05	0.23760231
76	0x3d9ce056	0.07659976
77	0x3e153476	0.14570794
78	0x3e2b8213	0.16748838
79	0x3e8f6ae8	0.2801125
80	0xbebb7eb3	-0.366201
81	0x3f0190ca	0.50611556
82	0xbd915ada	-0.07097407
83	0x3def7fd2	0.11694302
84	0x3db22cae	0.08699928
85	0xbda6b959	-0.08140821
86	0x3cad1380	0.021127462
87	0x3e00b179	0.125677
88	0x3e5bca0b	0.21463792
89	0x3e09a822	0.13443044
90	0xbc86b604	-0.016444214
91	0x3e0ce539	0.13759317
92	0x3dadf6ad	0.08494315
93	0xbacef2bf	-0.0015788897
94	0x3e505f2c	0.20348805
95	0x3e754316	0.23951373
96	0x3f07c405	0.5303348
97	0x3e44d85c	0.1922316
98	0x3d1d0c09	0.038341556
99	0xbdfb2992	-0.12263788
100	0x3ea9078e	0.33013576
101	0x3db427d5	0.0879666
102	0xbe163239	-0.14667596
103	0x3e630a37	0.22171865
104	0xbb393969	-0.002826298
105	0xbdf9ca13	-0.12196746
106	0xbda95473	-0.082680605
107	0xbde0eeae	-0.109830245
108	0x3eb62e69	0.35582283
109	0x3eac92f1	0.33705857
110	0x3f14b46e	0.58087814
111	0x3ccf4c9e	0.025305089
112	0xbe37fff0	-0.17968726
113	0x3d7c30ce	0.06156998
114	0xbd97c2e9	-0.07410223
115	0x3e577edd	0.21044488
116	0x3e614c5f	0.2200179
117	0xbe2cc7e7	-0.16873132
118	0xbdd09616	-0.101848766
119	0xbc2dfea8	-0.010619797
120	0xbdd4b817	-0.10386675
121	0x3ed715de	0.4200887
122	0x3d7b25e7	0.061315443
123	0x3e83238c	0.25613058
124	0x3e99065b	0.2988766
125	0x3e00d3d4	0.12580806
126	0x3c12b2a0	0.00895372
127	0xbe96dff0	-0.29467726
128	0xbe8effc7	-0.27929518
129	0xbe1c2c79	-0.1525134
130	0xbe2377bc	-0.15963644
131	0xbe7162a9	-0.23572792
132	0xbe015476	-0.12629876
133	0x3d7c241c	0.061557874
134	0xbe810eaa	-0.252065
135	0x3e28d769	0.16488422
136	0xbe9d1997	-0.30683586
137	0x3d820be9	0.06349928
138	0xbe93e0ae	-0.28882354
139	0x3da8b0da	0.08236857
140	0xbdb57a2c	-0.08861193
141	0xbe4f302e	-0.20233223
142	0x3e394767	0.18093644
143	0xbeccf4ff	-0.40030667
144	0x3d7ed47c	0.06221436
145	0xbe3e6b2c	-0.1859557
146	0xbe9ae1d2	-0.30250412
147	0xbdbafff6	-0.09130852
148	0xbd49495d	-0.04914223
149	0x3cf2c7a4	0.029636212
150	0xbdeccd44	-0.11562589
151	0xbeafb087	-0.34314367
152	0xbe7874d8	-0.24263322
153	0x3c3a181e	0.011358289
154	0x3c645522	0.013936313
155	0xbd076d3c	-0.03306316
156	0xbeaad86f	-0.3336825
157	0x3bd860fc	0.0066033583
158	0xbe2fc748	-0.17165864
159	0xbdb477c7	-0.08811908
160	0x3bb44680	0.0055015683
161	0xbe4ec9c7	-0.2019416
162	0xbda28e6d	-0.07937322
163	0xbe89f52e	-0.2694487
164	0xbb8a1481	-0.00421387
165	0x3d736062	0.05941809
166	0xbe0276ac	-0.12740582
167	0xbe998588	-0.2998469
168	0xbd697da3	-0.057004582
169	0xbd36d096	-0.044632517
170	0xbeef163b	-0.46696648
171	0xbeb6f9df	-0.35737512
172	0xbd0a063b	-0.033697348
173	0xbdf9b90a	-0.121934965
174	0xbdb289d9	-0.087176986
175	0xbe5bc13a	-0.21460429
176	0xbe5fe16c	-0.21863335
177	0xbde3e46f	-0.111275546
178	0xbe704430	-0.23463511
179	0xbe74c596	-0.23903498
180	0xbebb4ef7	-0.36583683
181	0xbe7b1b4d	-0.24522133
182	0xbc460b9b	-0.012087728
183	0xbdf0108e	-0.117219076
184	0x3d787103	0.06065465
185	0x3e0d2124	0.13782173
186	0xbd853821	-0.06504846
187	0x3cf5b7bb	0.029994836
188	0xbe4931f7	-0.19647966
189	0xbe32b05f	-0.17450093
190	0xbd9542d5	-0.07288138
191	0x3dc03d67	0.093867116
192	0xbd079166	-0.033097647
193	0xbe1ef64f	-0.15523647
194	0xbd012d9f	-0.03153765
195	0xbe6ccc95	-0.23124917
196	0xbe1f6749	-0.15566744
197	0xbe83c615	-0.25737062
198	0x3eecda42	0.46260267
199	0xbe7a6fbe	-0.24456689
200	0xbe02c676	-0.1277102
201	0xbdf56799	-0.1198265
202	0x3e985cd4	0.29758322
203	0xbd773269	-0.06035081
204	0x3cba1ffe	0.022720333
205	0xbe53666e	-0.20644543
206	0x3c70ad45	0.014689748
207	0xbecdea81	-0.40217975
208	0x3dcf22c5	0.10114054
209	0xbe922ec3	-0.285513
210	0xbe01fe66	-0.12694702
211	0xbe67498c	-0.2258665
212	0xbe1284f7	-0.14308535
213	0xbc8e6e82	-0.017386679
214	0x3df1c69f	0.11805462
215	0xbeb39932	-0.35077816
216	0xbe1eafd4	-0.1549676
217	0xbe20e33c	-0.15711683
218	0xbe0ca83b	-0.1373605
219	0xbe94b039	-0.29040697
220	0xbd2034d9	-0.0391129
221	0xbe1c2523	-0.15248542
222	0xbc65103c	-0.013980921
223	0xbdef3663	-0.11680295
224	0x3e371c0d	0.17881794
225	0xbd94c995	-0.07265011
226	0xbd142320	-0.03616631
227	0x3ded1ce4	0.11577776
228	0xbced3692	-0.028956685
229	0xbe0a0fdb	-0.13482611
230	0xbe869708	-0.26287103
231	0xbe4be89d	-0.19912954
232	0x3d8d730a	0.069067076
233	0x3a9f593f	0.0012157335
234	0x3ded03fb	0.11573025
235	0x3d89cc84	0.067284614
236	0xbe8f770e	-0.2802052
237	0xbe83d2ca	-0.25746757
238	0xbd5986b3	-0.053106975
239	0xbe484d50	-0.19560742
240	0xbe0b9deb	-0.1363446
241	0xbc89aeef	-0.016807048
242	0xbd8e517b	-0.06949135
243	0xbec83a4f	-0.39106986
244	0x3c1a6f41	0.009425939
245	0xbe17592f	-0.14780115
246	0xbe88b827	-0.26702997
247	0xbeb36540	-0.35038185
248	0xbdece525	-0.11567143
249	0xbeac8439	-0.33694628
250	0xbd7cbf5c	-0.061705932
251	0xbda1c258	-0.07898396
252	0xbe81a59c	-0.25321662
253	0x3d3bd0b2	0.045853324
254	0xbe339245	-0.17536266
255	0xbe038572	-0.12843874

lstm.weight_ih_l1 f4 [512, 128]
0	0xbe2c6014	-0.16833526
1	0x3f371c13	0.7152721
2	0x3d8df495	0.06931416
3	0xbec8af9c	-0.3919648
4	0x3ebc008a	0.3671916
5	0xbe7c66fe	-0.24648663
6	0x3ec1dbd7	0.37863037
7	0x3ece4375	0.4028584
8	0x3ce8c74a	0.02841534
9	0x3ee56207	0.4480135
10	0xbf132f09	-0.57493645
11	0x3e18be6b	0.14916389
12	0x3ea94471	0.3306003
13	0xbb7ca33f	-0.003854945
14	0xbe7a3a14	-0.24436218
15	0xbd2f139d	-0.042743314
16	0xbd6b7afc	-0.057490334
17	0xbe552ea7	-0.20818578
18	0xbe7721f0	-0.2413404
19	0xbe5cfc83	-0.215807
20	0x3f80cd04	1.0062566
21	0xbc82cd55	-0.01596705
22	0xbec36568	-0.38163304
23	0xbf03e746	-0.5152477
24	0xbe58b2a6	-0.21161899
25	0xbe76a507	-0.2408639
26	0xbedfcc0c	-0.43710363
27	0x3e610062	0.21972802
28	0xbe8c0ade	-0.2735204
29	0xbf2d1a10	-0.67617893
30	0xbf242303	-0.64115924
31	0xbf35ef74	-0.710685
32	0xbd81cbc4	-0.06337693
33	0xbf17dc8a	-0.5932089
34	0x3e905638	0.2819078
35	0x3ecf6ce2	0.40512758
36	0xbf13355b	-0.5750329
37	0xbf1ca631	-0.6119109
38	0xbe455ae2	-0.1927295
39	0xbee900f3	-0.45508537
40	0xbf6bcac9	-0.921063
41	0x3e4f6211	0.20252253
42	0x3f8e72e7	1.1128815
43	0xbf1def04	-0.61692834
44	0xbf5e34ae	-0.8679913
45	0xbe800582	-0.25004202
46	0xbf5465fb	-0.8296811
47	0xbe38aed8	-0.18035448
48	0x3cd8ac62	0.026449386
49	0x3e9b6cc5	0.30356422
50	0xbf01d168	-0.50710154
51	0xbe3c2a7a	-0.18375579
52	0xbee7ae4b	-0.45250162
53	0xbf3d7941	-0.74013144
54	0xbe46ab9b	-0.194014
55	0xbedc2f9f	-0.43005082
56	0x3f1001e7	0.562529
57	0xbef02045	-0.4689962
58	0xbcce99e2	-0.025219861
59	0x3f0acc39	0.5421787
60	0xbd36039a	-0.04443703
61	0xbe419561	-0.1890464
62	0xbea0688d	-0.31329766
63	0x3e033068	0.12811434
64	0xbe8412f1	-0.257957
65	0xbf1b6c4a	-0.6071211
66	0xbcd9e524	-0.02659852
67	0xbe9e72e8	-0.30947042
68	0xbe967669	-0.29387215
69	0x3cdd392b	0.027004799
70	0xbe576c9b	-0.21037523
71	0xbf2aac6a	-0.66669333
72	0xbf2b8e1d	-0.6701372
73	0xbc2fe4df	-0.010735719
74	0x3f9e44a6	1.23647
75	0x3ef81d2e	0.48459762
76	0x3f20ae48	0.6276593
77	0x3e894e69	0.26817635
78	0x3f3665d8	0.7124915
79	0xbecb5d14	-0.3971945
80	0xb985dacb	-0.0002553075
81	0x3f6e0442	0.92975247
82	0xbe844225	-0.25831714
83	0xbf2b0fed	-0.66821176
84	0x3f249a95	0.64298373
85	0xbd151672	-0.03639836
86	0x3ecc3e96	0.398915
87	0xbd6c68a2	-0.057716973
88	0x3df1a910	0.11799824
89	0xbd1ddd7e	-0.03854131
90	0x3f461b1b	0.7738511
91	0x3f0b700d	0.5446785
92	0xbf099fc0	-0.53759384
93	0x3eaf594a	0.3424781
94	0x3e166a04	0.14688879
95	0x3f513a5e	0.81729686
96	0xbef57579	-0.47941187
97	0xbe5fa5a6	-0.21840534
98	0x3ed7ad7e	0.42124552
99	0x3f03413e	0.51271427
100	0x3f1d09c6	0.6134304
101	0x3d836375	0.06415454
102	0xbde26870	-0.11055076
103	0x3f3714d5	0.7151616
104	0x3e89f02d	0.26941052
105	0x3e8adf70	0.27123594
106	0xbe3dc010	-0.18530297
107	0x3e93752b	0.2880033
108	0xbeaa1e6f	-0.33226344
109	0xbf74644d	-0.95465547
110	0xbf03b33a	-0.51445353
111	0xbf3dd7c8	-0.7415738
112	0xbf19c2d6	-0.6006292
113	0xbe828f8c	-0.25500143
114	0x3f1dc2cc	0.6162536
115	0x3f963fa1	1.1738168
116	0x3e9a10ef	0.30091044
117	0x3e85aad3	0.2610689
118	0x3e8c587d	0.2741126
119	0xbed7b48f	-0.42129943
120	0xbe612608	-0.21987164
121	0x3ec18278	0.37794852
122	0xbef7b953	-0.4838358
123	0xbd52fffc	-0.051513657
124	0xbea2ca2e	-0.31794876
125	0x3f5ed05c	0.8703668
126	0xbfa5e389	-1.2960063
127	0xbda05eb8	-0.07830566
128	0xbe17ef76	-0.14837441
129	0x3e468fde	0.19390818
130	0x3e4ab614	0.1979602
131	0x3ebd5e80	0.3698616
132	0xbe84059a	-0.25785524
133	0xbed43db0	-0.41453314
134	0x3d87a523	0.06623294
135	0x3e6401ed	0.2226636
136	0xbcf4f47c	-0.029901735
137	0xbf90e61d	-1.1320225
138	0xbd7c1dfc	-0.061552033
139	0xbf306ade	-0.68913066
140	0xbd0f72bf	-0.03502154
141	0xbf6d649d	-0.9273165
142	0x3ec517b3	0.38494644
143	0xbe44e75b	-0.1922888
144	0x3ee87af1	0.45406297
145	0x3f82b0ee	1.0210245
146	0xbeaba02e	-0.33520645
147	0x3da05788	0.07829195
148	0xbde61204	-0.11233905
149	0x3d8ee6f2	0.06977643
150	0xbf5edc5d	-0.87055
151	0xbee4b6df	-0.4467077
152	0xbcf5dde6	-0.030013036
153	0x3e54d6f1	0.20785119
154	0xbed0c8fa	-0.40778333
155	0xbf8fbd2e	-1.1229608
156	0xbec87fb1	-0.3915992
157	0x3f1f22e3	0.6216261
158	0x3f16416a	0.58693564
159	0xbe032d52	-0.12810257
160	0x3e1cd224	0.15314537
161	0xbee5be4a	-0.44871742
162	0xbe4b2b0d	-0.19840641
163	0xbdeac0ef	-0.114625804
164	0xbf69f965	-0.9139617
165	0x3f79f7d1	0.9764376
166	0x3ec07b49	0.3759406
167	0x3ec69611	0.38786367
168	0x3debabac	0.11507353
169	0x3e65a45a	0.22425976
170	0xbf307075	-0.68921596
171	0xbf2efc5e	-0.6835383
172	0xbd561c0e	-0.05227285
173	0xbe051c58	-0.12999094
174	0x3f84e1be	1.0381391
175	0x3f09f799	0.5389343
176	0xbe433611	-0.19063593
177	0xbf02e1fd	-0.5112608
178	0xbde158de	-0.11003278
179	0x3e286fc4	0.16448885
180	0xbd2204a9	-0.039555226
181	0x3f360f2d	0.71116906
182	0xbf2fccc8	-0.68671846
183	0x3e8a1359	0.26967886
184	0x3e5fed81	0.21867944
185	0xbe9cb2d1	-0.30605176
186	0x3f37dc96	0.7182096
187	0x3f2e19aa	0.6800791
188	0x3f384d6d	0.7199314
189	0x3e8e5f53	0.27807102
190	0xbf90aecd	-1.1303345
191	0x3e99f8cc	0.3007263
192	0x3f0aeba3	0.54265803
193	0xbf138b44	-0.5763438
194	0xbe8a70b7	-0.2703912
195	0xbf506149	-0.81398445
196	0xbe7d4d98	-0.24736631
197	0xbf147174	-0.57985616
198	0xbf035869	-0.5130678
199	0xbea619b0	-0.32441473
200	0xbf8f9d93	-1.1219963
201	0xbf2e06b9	-0.6797901
202	0xbedac296	-0.42726582
203	0x3f628122	0.8847829
204	0x3ff302df	1.8985251
205	0x3fb799c0	1.4343796
206	0x3f514e62	0.8176023
207	0x3e4a433d	0.19752212
208	0xbd4ce4af	-0.050022777
209	0x3f273819	0.65319973
210	0xbef29e3a	-0.47386342
211	0xbd08a8ef	-0.033364233
212	0x3e3ce2a8	0.18445837
213	0x3fb5cf15	1.4203821
214	0xbdbcbdd1	-0.09215892
215	0x3eda7be5	0.4267265
216	0x3e9e5222	0.30922037
217	0x3e9d6919	0.30744246
218	0x3f75576c	0.9583652
219	0x3eab4d27	0.334573
220	0x3ecd0122	0.40039927
221	0x3f06cac3	0.5265314
222	0xbf505315	-0.81376773
223	0x3eadc2f5	0.33937803
224	0xbc7825a9	-0.015145698
225	0xbf83393c	-1.0251842
226	0xbde0fff5	-0.1098632
227	0xbe784b3d	-0.24247451
228	0xbf0f9ac2	-0.56095517
229	0x3ea5d363	0.32387838
230	0xbea285f8	-0.31742835
231	0x3d817053	0.06320252
232	0xbe007787	-0.12545596
233	0xbeff1ca1	-0.4982653
234	0x3f36465b	0.71201104
235	0xbfd39942	-1.6531146
236	0x3f2a771e	0.6658801
237	0x3eab81b4	0.33497393
238	0x3eb1cf2e	0.34728378
239	0xbf337eb3	-0.701152
240	0xbee15820	-0.44012547
241	0xbc8c50b9	-0.017128335
242	0x3f590c86	0.84784734
243	0xbdfaf04a	-0.12252863
244	0xbf321cb5	-0.69575053
245	0x3dcafe54	0.099117905
246	0x3def974b	0.11698779
247	0xbe14589b	-0.14486925
248	0xbd414a21	-0.047189835
249	0xbe6e5904	-0.23276144
250	0xbf4eb6f2	-0.807479
251	0x3eb50bb4	0.3536049
252	0x3db3be0d	0.08776484
253	0x3f980fd0	1.1879826
254	0x3e95b910	0.29242754
255	0xbe06f6b3	-0.13180046

lstm.weight_hh_l1 f4 [512, 128]
0	0xbdfaada8	-0.122401536
1	0xbe861528	-0.26188016
2	0xbeda6851	-0.42657712
3	0x3c2f5581	0.010701538
4	0x3eea7918	0.45795512
5	0xbe672f9c	-0.22576755
6	0x3ed6108b	0.41809496
7	0x3dd3efe0	0.10348487
8	0xbe6ed72c	-0.23324269
9	0xbed6d1ab	-0.4195684
10	0x3e576b5d	0.2103705
11	0xbf08dd3f	-0.53462595
12	0xbe1e2fb0	-0.15447879
13	0x3ebeee98	0.37291408
14	0xbee57d64	-0.44822228
15	0xbe4debaf	-0.20109437
16	0xbe9971bc	-0.29969585
17	0x3ea3a029	0.3195813
18	0xbe9b383b	-0.30316338
19	0xbe31a3ea	-0.17347685
20	0xbed7e124	-0.42163956
21	0xbe92013a	-0.2851656
22	0x3ed361bc	0.41285503
23	0x3dcac744	0.09901288
24	0xbc2cfc6d	-0.01055823
25	0x3d23f275	0.040026147
26	0xbedd4b38	-0.4322145
27	0x3ed56ccd	0.4168457
28	0x3f0db7fc	0.5535886
29	0xbf36f8d6	-0.71473444
30	0xbe22729e	-0.15864035
31	0x3ef156a1	0.47136405
32	0x3f2dc0c5	0.6787227
33	0xbea5519d	-0.32288828
34	0xbec2f84b	-0.38080058
35	0x3e64ef56	0.22356924
36	0x3e8ec4c1	0.27884486
37	0xbef1b554	-0.47208655
38	0x3f517e18	0.8183303
39	0x3e937c68	0.28805852
40	0xbf2d325b	-0.6765496
41	0x3ec058aa	0.37567645
42	0x3ea44619	0.3208473
43	0xbf06508b	-0.5246665
44	0x3deb67dc	0.11494419
45	0x3d767be2	0.060176738
46	0x3ea24231	0.31691125
47	0x3e83a0cd	0.2570862
48	0xbd05c15a	-0.032655098
49	0x3ee6d718	0.45085979
50	0x3f62635a	0.8843285
51	0x3e44bd21	0.19212772
52	0xbe3722c7	-0.1788436
53	0x3d05a748	0.032630235
54	0x3dadde9d	0.08489726
55	0x3f9ebb10	1.2400837
56	0xbdaa6a9d	-0.08321116
57	0x3f88483a	1.0647042
58	0xbe6f51ae	-0.23371002
59	0x3f0c77c2	0.54870236
60	0x3e8464fd	0.25858298
61	0xbf25cf47	-0.64769405
62	0xbf019f8c	-0.50634074
63	0x3f2e089b	0.6798188
64	0xbd4f9d95	-0.05068739
65	0xbf376bf4	-0.716491
66	0xbf0c71dc	-0.54861236
67	0xbeda5d04	-0.4264909
68	0xbd94d1a1	-0.07266546
69	0xbe1a6726	-0.1507841
70	0xbf52cb67	-0.8234162
71	0x3e86b0fa	0.26306897
72	0x3d8b76de	0.068097815
73	0x3f01e70d	0.5074318
74	0x3e8271ab	0.25477347
75	0xbe60fafd	-0.21970744
76	0xbdc07940	-0.093981266
77	0x3e9705b7	0.29496548
78	0xbe17fd1b	-0.14842646
79	0xbf114f6b	-0.5676181
80	0xbf4d5d1a	-0.80220187
81	0x3ecc268d	0.39873162
82	0xbf4362cf	-0.76322645
83	0x3eefd332	0.46840817
84	0x3eeedfcb	0.46655115
85	0xbee163d4	-0.44021475
86	0xbf00c63b	-0.50302476
87	0x3edf66fc	0.43633258
88	0xbeb36d19	-0.35044172
89	0xbeca37bf	-0.39495656
90	0xbd30fad1	-0.043207947
91	0x3dba3bca	0.09093435
92	0xbeaf652c	-0.34256876
93	0x3ee29838	0.4425676
94	0xbea3a9e6	-0.3196556
95	0x3efbc151	0.49170926
96	0xbf0c3866	-0.5477356
97	0x3ea52dd0	0.32261515
98	0xbea4a646	-0.32158107
99	0xbe38d6ab	-0.1805064
100	0xbddf6885	-0.109086074
101	0xbe87cf0e	-0.26525158
102	0xbf0c119d	-0.54714376
103	0xbda82434	-0.0821003
104	0xbd1ddb38	-0.03853914
105	0xbec7ee37	-0.3904893
106	0xbecad08f	-0.39612243
107	0x3eb0a3b7	0.34499905
108	0x3eba3d78	0.36375022
109	0x3e8fd12e	0.2808928
110	0xbedbe291	-0.42946294
111	0x3e85e39b	0.26150212
112	0x3e328c02	0.17436221
113	0x3cc1af20	0.023643076
114	0xbd1e7b9c	-0.0386921
115	0xbde2e9db	-0.11079761
116	0xbe475b9e	-0.19468543
117	0xbe5eeee7	-0.21770822
118	0x3e6afcc0	0.22947979
119	0xbf3dfd1f	-0.7421436
120	0x3f0e93de	0.5569438
121	0x3e24ab09	0.1608087
122	0x3e31041d	0.17286725
123	0xbdc5ef81	-0.09664822
124	0xbf4780ef	-0.7793111
125	0x3f30d5e3	0.69076365
126	0xbc1140c4	-0.008865539
127	0x3eb70299	0.3574417
128	0xbd4a9532	-0.04945869
129	0x3f825e91	1.0185109
130	0x3ca1cb57	0.01975028
131	0xbec800e2	-0.39063174
132	0xbd6411f3	-0.05568118
133	0xbe7690df	-0.24078701
134	0xbde7c1fa	-0.11316295
135	0x3f67d17d	0.9055403
136	0xbefebe7a	-0.49754697
137	0x3f178bf9	0.59197956
138	0xbf23f1da	-0.6404091
139	0x3ecdcf21	0.4019709
140	0x3edd5c2d	0.43234387
141	0x3ebb4318	0.36574626
142	0x3eb14986	0.34626406
143	0x3ee147aa	0.43999988
144	0x3f2cc5b3	0.67489165
145	0xbf18ff07	-0.5976414
146	0xbe30f1ed	-0.17279787
147	0x3dbdebe2	0.09273507
148	0xbe90daff	-0.2829208
149	0x3eaf09c5	0.3418714
150	0x3eccafda	0.39977914
151	0xbfac4169	-1.3457462
152	0xbeb7e1a7	-0.35914347
153	0x3ed004c2	0.4062863
154	0xbf44b799	-0.7684265
155	0x3e4e3c74	0.20140249
156	0x3db8b4fc	0.09018895
157	0xbed0afd0	-0.40759134
158	0xbf491a8e	-0.78556144
159	0xbd22850c	-0.039677665
160	0x3e4a0af8	0.19730747
161	0xbede8e92	-0.43468148
162	0x3ef2e61d	0.47441188
163	0xbed5f5d3	-0.41789111
164	0x3e256055	0.16150029
165	0x3eba8279	0.36427668
166	0xbe482c50	-0.19548154
167	0xbec9c654	-0.39409125
168	0xbf39c40d	-0.72564775
169	0xbf3d26c4	-0.73887277
170	0xbf78e644	-0.9722636
171	0x3d93e46f	0.072213046
172	0xbf0f16a5	-0.5589393
173	0xbe95b02e	-0.29235977
174	0xbe922e4c	-0.28550947
175	0xbed7ee20	-0.42173862
176	0xbe63619e	-0.22205207
177	0x3e7790cd	0.24176331
178	0xbeb27434	-0.3485428
179	0xbf7e0634	-0.99228215
180	0x3f2e5d43	0.68111056
181	0xbeb856d5	-0.36003748
182	0x3d5f0a5f	0.05445325
183	0x3e9613e0	0.29312038
184	0xbdcb94d8	-0.09940499
185	0x3f7c8a36	0.98648393
186	0xbe586712	-0.21133068
187	0xbeaf0201	-0.34181216
188	0xbec8b11e	-0.3919763
189	0x3f6d655c	0.9273279
190	0x3efef78d	0.4979824
191	0xbd1f499a	-0.03888855
192	0xbed3840f	-0.4131169
193	0xbf0f3890	-0.5594568
194	0xbf249673	-0.6429207
195	0xbd3b674b	-0.045752805
196	0x3e2854eb	0.16438644
197	0xbef349b6	-0.47517174
198	0x3e91719f	0.28407
199	0xbe748f47	-0.23882781
200	0xbdb8e9f3	-0.09028997
201	0xbf83e2bb	-1.0303568
202	0x3f3982f9	0.72465473
203	0xbf64b423	-0.89337367
204	0xbe0ed377	-0.13947855
205	0x3f1996df	0.59995836
206	0xbeab07b3	-0.33404312
207	0xbe9698a9	-0.29413345
208	0xbf164bcb	-0.587094
209	0x3ef50582	0.47855765
210	0x3e4d5db6	0.20055279
211	0xbc5e2a0d	-0.01355983
212	0xbefe6c1b	-0.49691853
213	0xbe5e2118	-0.21692312
214	0xbed66061	-0.41870406
215	0x3ebef797	0.3729827
216	0xbf0d64b2	-0.55231774
217	0x3ed57768	0.41692662
218	0xbea87129	-0.32898834
219	0x3f3b44a0	0.7315159
220	0x3ef772c4	0.48329747
221	0x3f7389ec	0.9513233
222	0xbef7aad0	-0.48372507
223	0xbe8541d8	-0.26026797
224	0x3f049f95	0.51806
225	0x3e3f5b59	0.1868719
226	0xbe81b27e	-0.2533149
227	0x3dfaece6	0.12252216
228	0x3f01f6ed	0.50767404
229	0x3e69dce3	0.22838168
230	0x3e0b477e	0.13601491
231	0xbf23b53a	-0.63948405
232	0xbe0bea46	-0.13663587
233	0x3d5764aa	0.052586235
234	0x3f1b5619	0.6067825
235	0x3f636e07	0.88839763
236	0xbf4b96de	-0.7952708
237	0x3f09881c	0.5372331
238	0xbd7202b0	-0.059084594
239	0x3e82de0e	0.2556004
240	0x3ec03332	0.3753906
241	0x3f060ca3	0.5236303
242	0x3f2526a9	0.64512116
243	0x3ec1e4d7	0.37869903
244	0x3cdbc659	0.026827978
245	0xbdd861d5	-0.10565535
246	0xbd7524c5	-0.05984952
247	0x3d807e52	0.06274094
248	0x3e0c1080	0.13678169
249	0x3eeead20	0.4661646
250	0x3e3a0bf9	0.1816863
251	0xbf2cc545	-0.6748851
252	0xbf19584a	-0.59900343
253	0xbf3173c6	-0.6931728
254	0x3c90ca22	0.01767451
255	0xbedf5361	-0.436183

lstm.bias_ih_l1 f4 [512]
0	0x3c3070f8	0.010769121
1	0xbda99950	-0.08281195
2	0x3e8f2cdc	0.27963912
3	0xbd3cef7a	-0.04612682
4	0xbc93ce41	-0.018042685
5	0x3eee8302	0.46584326
6	0xbeaad690	-0.33366823
7	0x3d821c42	0.06353046
8	0x3e7ea1b4	0.24866372
9	0x3d8d6732	0.069044486
10	0xbe26407d	-0.16235538
11	0xbc67cbea	-0.014147738
12	0x3d2f9d73	0.042874765
13	0xbdd257eb	-0.10270675
14	0x3d2b22d4	0.04178126
15	0xbe312c6f	-0.17302106
16	0x3e7efeae	0.2490184
17	0xbcbf03b4	-0.023317195
18	0x3cb45f40	0.022018075
19	0x3eb4442b	0.35208258
20	0x3d62417d	0.055238236
21	0xbdfcbd3a	-0.123407796
22	0x3d8c1627	0.06840163
23	0x3e4e9c95	0.20176919
24	0x3dac5283	0.08414175
25	0x3e0aa37f	0.13538931
26	0xbdd43ec9	-0.10363538
27	0xbe6da474	-0.23207265
28	0x3dc53247	0.0962873
29	0xbda11e88	-0.078671515
30	0x3ceea600	0.02913189
31	0x3d0c577a	0.03426311
32	0xbec51bcc	-0.3849777
33	0xbdb64771	-0.08900345
34	0xbddf4b81	-0.10903073
35	0x3d436085	0.04769947
36	0xbe1108b4	-0.14163476
37	0x3d062b9d	0.032756437
38	0x3e1366cd	0.14394684
39	0x3e8ecf7d	0.27892676
40	0x3e0ab64a	0.135461
41	0xbc236f92	-0.009975331
42	0x3dff3437	0.12461131
43	0xbd9d22c3	-0.07672646
44	0x3ebd1e0a	0.3693698
45	0xbe9d5072	-0.30725437
46	0xbd8675f3	-0.06565466
47	0x3e1ffa2e	0.1562278
48	0x3d9ba07d	0.0759897
49	0xbd377d9e	-0.044797532
50	0xbde27fc1	-0.110595234
51	0xbe59775b	-0.21236937
52	0xbe220a30	-0.15824199
53	0xbda4715c	-0.08029434
54	0x39f45530	0.00046602776
55	0x3d39b77f	0.04534101
56	0xbe8a7969	-0.27045754
57	0x3d15e426	0.036594532
58	0x3e790f57	0.24322258
59	0xbd5aaeb5	-0.05338927
60	0x3c565d9a	0.01308384
61	0xbd81b4ed	-0.06333337
62	0x3ea34a2c	0.31892526
63	0xbc5f725d	-0.013638106
64	0xbc1b6a71	-0.009485827
65	0x3e22b1f1	0.15888192
66	0xbd826394	-0.06366649
67	0xbd8685a2	-0.06568457
68	0x3e3d98ea	0.18515363
69	0xbd1a09bb	-0.037606936
70	0xbeaaa460	-0.33328533
71	0xbe3a875d	-0.182157
72	0x3e5a6a6e	0.21329662
73	0xbce1b35c	-0.027551346
74	0x3e112d59	0.14177455
75	0x3dd5ab29	0.10433037
76	0x3ce60c8f	0.02808216
77	0xbe13b261	-0.14423515
78	0xbe0d6b6f	-0.13810514
79	0x3d3d994c	0.046288773
80	0xbe28c991	-0.16483141
81	0xbe188f26	-0.14898357
82	0x3f093391	0.5359431
83	0xbe867711	-0.26262715
84	0xbd99b19c	-0.075045794
85	0xbcd4be83	-0.02596975
86	0xbe4bbb53	-0.19895677
87	0x3e13e404	0.1444245
88	0x3f1f3ec8	0.6220517
89	0x3e432077	0.19055353
90	0xbd78a2a5	-0.060701985
91	0xbe85fe81	-0.26170734
92	0x3e9cb34b	0.3060554
93	0x3a7fa49b	0.0009752006
94	0x3e4382b1	0.19092824
95	0xbdab2bfa	-0.08357997
96	0xbef0c25b	-0.4702328
97	0x3e0dd5db	0.1385111
98	0x3de31bc0	0.11089277
99	0x3e4e4495	0.2014335
100	0x3ce9e33f	0.028550742
101	0x3e9e8e60	0.30967999
102	0x3ef90cfb	0.48642716
103	0x3e36a1ef	0.1783521
104	0x3e3a12ef	0.18171285
105	0x3e6afc2d	0.2294776
106	0xbe07a82d	-0.13247748
107	0xbe8b4bb1	-0.27206185
108	0xbc112443	-0.008858743
109	0x3ed3e1d9	0.41383246
110	0xbe308120	-0.17236757
111	0x3c48c6b6	0.012254408
112	0x3d524cf6	0.051342927
113	0xbd22519d	-0.039628614
114	0xbcae013e	-0.021240827
115	0xbbe69aff	-0.00703752
116	0x3ed27b6e	0.41109794
117	0x3f17fc76	0.593696
118	0x3dce4db1	0.10073412
119	0xbda04bce	-0.078269586
120	0xbe49d1c7	-0.1970893
121	0xbcfd8a28	-0.030949667
122	0x3db7af81	0.089690216
123	0xbdc3ff89	-0.09570224
124	0x3c414a62	0.011797519
125	0xbd603157	-0.054734554
126	0xbddb4282	-0.10706045
127	0xbe15f733	-0.1464508
128	0x3db4344d	0.08799038
129	0x3de6390c	0.112413496
130	0x3d515923	0.051110398
131	0xbcc9f75b	-0.024654081
132	0x3da07f85	0.078368224
133	0xbe063372	-0.13105562
134	0xbcd02239	-0.025406944
135	0x3da13ae4	0.078725606
136	0x3cc06b36	0.023488622
137	0x3d048f08	0.032362968
138	0xbe50f5b0	-0.20406222
139	0xbc68b723	-0.014203819
140	0xbd02992c	-0.031884357
141	0x3df2fed0	0.11865008
142	0x3c144f63	0.00905213
143	0x3deeaedd	0.11654446
144	0x3d2a8af7	0.041636433
145	0xbd00aef8	-0.031416863
146	0xbd6f8b00	-0.05848217
147	0x3e1e0132	0.15430143
148	0x3db6c24a	0.089237764
149	0xbc1df746	-0.009641474
150	0x3d223621	0.039602403
151	0xbe5c383b	-0.21505825
152	0xbd8ba224	-0.06818035
153	0x3dbffe5c	0.09374687
154	0xbc95429b	-0.018220237
155	0xbe49254d	-0.19643135
156	0x3d30be4e	0.04315024
157	0x3d71e374	0.059054807
158	0x3dc8596f	0.09782683
159	0x3d8378bf	0.06419515
160	0x3e30a05c	0.17248672
161	0x3e325e25	0.17418726
162	0x3da6a558	0.081370056
163	0xbe29ef70	-0.16595244
164	0xbdca67f3	-0.09883108
165	0x3d3f57cb	0.046714585
166	0x3d56ff80	0.052489758
167	0x3e2e10ee	0.16998646
168	0x3e0c26df	0.13686703
169	0xbe0a610d	-0.13513584
170	0x3ceea7f9	0.02913283
171	0xbd809add	-0.06279538
172	0xbdba71a6	-0.09103708
173	0x3ca102d7	0.019654674
174	0x3b1729cd	0.0023065687
175	0xbe717143	-0.23578362
176	0x3d0f85fe	0.035039894
177	0xbe1755df	-0.14778851
178	0xbbaacb13	-0.0052121966
179	0x3dcb2158	0.09918469
180	0x3e0a6d7d	0.13518329
181	0xbcd5787e	-0.026058432
182	0x3da01f4c	0.078184694
183	0x3db0d447	0.08634239
184	0x3d0fcc78	0.035107106
185	0xbdff7b1c	-0.12474653
186	0x3d379c09	0.04482654
187	0xbe1ff119	-0.15619315
188	0x3c640e00	0.0139193535
189	0x3d86469a	0.06556435
190	0x3ea663ee	0.32498115
191	0x3dde1f5f	0.10845827
192	0x3ce79dbf	0.028273461
193	0x3d866fe2	0.06564309
194	0x3e4e09ec	0.20120972
195	0x3d94ed86	0.072718665
196	0xbeb9a6f0	-0.36260176
197	0xbe0c4de0	-0.13701582
198	0xbde5619d	-0.11200259
199	0xbe93b044	-0.28845417
200	0xbe2080e8	-0.15674174
201	0xbe721478	-0.2364062
202	0x3d2cb075	0.04216047
203	0x3dd03e3e	0.10168122
204	0x3db83efd	0.08996389
205	0x3e3a1754	0.18172961
206	0x3d46c246	0.048525117
207	0xbdeb06d8	-0.11475915
208	0x3e3189b4	0.17337686
209	0x3e016d28	0.12639296
210	0x3ca99c81	0.02070451
211	0xbd20998f	-0.039208945
212	0x3e4e9bdb	0.20176642
213	0x3d324155	0.043519337
214	0x3e73e769	0.23818745
215	0x3d9c25fd	0.07624433
216	0x3d80f88d	0.06297407
217	0xbe0a2655	-0.13491185
218	0xbd4adad1	-0.049525086
219	0xbd429e3e	-0.047514193
220	0xbe79ac4c	-0.24382132
221	0x3c98e9d5	0.018666187
222	0x3c276959	0.010217988
223	0x3dc3faf7	0.09569352
224	0x3e2d099b	0.16898195
225	0x3c293c5b	0.010329331
226	0x3c1d2d9e	0.0095933955
227	0xbe23db1e	-0.16001555
228	0xbda4b8dc	-0.08043072
229	0x3ca2a213	0.019852674
230	0x3d92e04f	0.0717169
231	0x3e00cb5a	0.12577572
232	0x3d93a3bc	0.07208964
233	0x3cba3e88	0.022734895
234	0xbe7c963c	-0.24666685
235	0x3dc8db26	0.09807424
236	0x3e2a13e8	0.16609156
237	0x3e103bcd	0.14085312
238	0x3d1e77af	0.038688358
239	0xbdd48cfc	-0.10378453
240	0x3e15ada5	0.14617021
241	0xbeb3bdc8	-0.3510573
242	0xbcb12ec4	-0.021628745
243	0xbdc48930	-0.09596479
244	0x3ca56d5a	0.020193744
245	0xbc2354a9	-0.009968915
246	0xbe526003	-0.20544438
247	0x3e01637c	0.12635607
248	0xbb63a7b8	-0.003473742
249	0x3d3233cd	0.043506432
250	0xbe176b7c	-0.14787096
251	0x3b7fed7f	0.003905147
252	0x3cf7889d	0.03021651
253	0x3c0c52c3	0.008564654
254	0xbca98afe	-0.02069616
255	0x3d2cb0c1	0.042160753
